model_weights.pth (torch, 23009 bytes, 8 tensors)

user_mlp.0.weight f4 [64, 4]
00000000: c6fa 0dbf eb82 7c3e cfef db3d 9b32 84be
00000010: f870 8fbe b670 92be df86 9f3e 4820 a23e
00000020: 3a9e c2be 86b6 143f f943 1d3f 9be8 bdbe
00000030: 80bd ce3d c942 24be 68b5 983e dcaa 3cbd
00000040: e3a2 04bf 32cb d13e a455 26bf de1e 2cbf
00000050: f092 96bd 3a29 e4be 1239 fabe 28b2 eb3d
00000060: 367b 8dbe 5749 1dbf 34ca 10bf 0f4e 143e
00000070: d6a1 0fbb 0199 51be 4bcc c2be 08ae 943e
00000080: d0f6 b0be f073 893d 1816 8ebe 0893 e13d
00000090: 84cb 6fbe a0ba 26be 6810 48be 6a4b a8be
000000a0: 5347 b5be eb90 99be 7948 913e 9c74 0e3f
000000b0: e034 bbbd b126 2a3e 3d01 f2be 8cff c93e
000000c0: a0d0 dabc ae77 a9be ec4b 03be 206f 983d
000000d0: db80 2f3d 1c35 cc3d 4474 193e 1ec9 30be
000000e0: f338 fd3d ba2d 9cbe 1f16 eb3e 3839 fb3e
000000f0: 508d 1ebf 5c6f c0be 73bc ba3d 2dd6 353e
00000100: de38 d53d 47b9 babe 8e9a 8abe ef98 d03d
00000110: 176a 04be a628 90be 0122 a03e 7b55 c1be
00000120: 7efe f8be 504e d8bd b001 5c3d 2c87 45be
00000130: 87a9 01bf ad02 aa3e f08d 8a3e 1ce2 4fbe
00000140: 2033 a23c f0ce 063d e492 bfbe 8850 f2bd
00000150: 713b a63e 1ab6 b33e 09e6 e4be f338 31bf
00000160: caeb 1dbf 5fd1 d7be 5806 2f3e 4565 9f3e
00000170: f00b adbd d8cd 30be bad7 c9be 383d 0dbe
00000180: 9175 0cbe a34c a3be 7cba 243e b725 973d
00000190: a347 e7bd e2b6 993e 6202 b2be 5c3d 85be
000001a0: 47d9 8f3e c0e0 913e 7157 e9be ca0f c2be
000001b0: 6225 553d e692 f0be 7bc8 65bd 69c6 633e
000001c0: ef40 f7bc b21a 14bf 7722 00be 8435 fd3e
000001d0: 7ac2 c7bd eee4 383d 5bac bcbe 0021 52be
000001e0: b484 6fbe e454 91be f8fd d3bd 206f b9bd
000001f0: 5098 ad3d 2d13 86bf c714 1ebe e8bd 2b3e
00000200: a39a 10bf 1bf7 813e 1b75 953e ad0d 003e
00000210: 1f22 a9be f369 cfbe bad8 b33d b3e1 a2bd
00000220: 3c6f 9f3e f9df 91be e050 7ebe 3ac4 88be
00000230: d117 c8be 62f3 063f 130b 96be 46dd a7be
00000240: 5068 74be 6aa5 a3be bae1 eb3e 8250 c0be
00000250: e332 623e eec9 ccbd 6e6d 183c 7aaa 70be
00000260: e1ed c83e 2996 863e c250 ec3b d017 633e
00000270: 5bd0 063e b625 4bbe 8b2d cb3e c6b7 ed3e
00000280: e82f a63d 0a5e e0be 4225 e3be 7e07 e2be
00000290: bf7c 1cbe 1851 9d3e 530f 38bf 1478 1f3e
000002a0: 4196 eabe ed55 bf3e 8a5c dfbe ee39 8f3e
000002b0: eed3 e3bd beba 8c3e 592f dabe d383 9fbe
000002c0: 8845 9a3d 4409 f4be 5209 87be 30dc e1be
000002d0: d503 d33e 80ed 193e 8b92 28bd 7aff 903e
000002e0: b083 cabe deec b93e a413 e13c c699 d6bb
000002f0: 918c d2bd 9200 9fbe 514b 003e 01c9 953e
00000300: e545 0fbf 4d9e 14be 91d8 14bc 49f9 e4be
00000310: 7237 f5be cf84 49be 8dc8 c83e 204c 4ebe
00000320: 78cb a23e e49a b43e bcd3 5d3e 6c06 74be
00000330: 1ab2 c5be 364c ffbd f9e1 683d 41a0 723e
00000340: 8b63 9a3d b716 2a3e 4fa3 85be cc02 0dbf
00000350: a8fd 90bd 9aeb 933e b8cf 93bd 5edb e0be
00000360: 5849 bdbe c696 b8be 0c32 a13e bc00 b3be
00000370: 242f a6be aed1 0ebe 8f2b a93e 7918 9fbd
00000380: 0a11 e3be 350c 83be c71d 503e 8ca5 88be
00000390: 7111 3d3e df9c b5be b75b 84bf 2490 03bf
000003a0: d339 5a3d a1f0 aabb 3ed8 86be 0098 bcbe
000003b0: 73e3 d6be 7426 853e a5a4 99bb f643 023f
000003c0: c31a 06be 3290 b4be f4c2 e73e 1109 b9be
000003d0: 3f76 87be c2d6 843e 5121 98be f122 6e3e
000003e0: 6dd1 263e cd31 bfbd 613a b73e a4f1 c33e
000003f0: e790 b13e bf19 3ebf e5c1 d7be 36bf 903e
-0.55460775 0.24659316 0.10739099 -0.2581986 -0.28015876 -0.28601617 0.31157586 0.31665254
-0.38011342 0.5809101 0.61431843 -0.37091526 0.10094738 -0.16041102 0.29825902 -0.04606138
-0.51811045 0.40975338 -0.6497443 -0.672346 -0.07352245 -0.44562703 -0.48871666 0.1150859
-0.27633065 -0.6144003 -0.5655854 0.14482902 -0.002191653 -0.20468523 -0.38046488 0.29039025
-0.34563303 0.067115664 -0.2775123 0.11014372 -0.23417479 -0.1628213 -0.19537508 -0.32870036
-0.3540598 -0.29993376 0.28375605 0.5564668 -0.091409445 0.16616322 -0.4726657 0.3945278
-0.026710808 -0.3309912 -0.1282193 0.074430704 0.042847496 0.09971067 0.14985758 -0.1726422
0.12364378 -0.30503637 0.45915315 0.49067092 -0.61934376 -0.3758496 0.09117975 0.17757483
0.10411237 -0.3646948 -0.2707104 0.1018542 -0.12931095 -0.28156012 0.31275943 -0.3776053
-0.48631662 -0.10561812 0.053712547 -0.19289845 -0.50649303 0.33205166 0.27061415 -0.20301098
0.019799769 0.032912195 -0.37416756 -0.11831766 0.32467225 0.3509987 -0.44706753 -0.6922752
-0.6168791 -0.42151925 0.17092264 0.3113195 -0.084495425 -0.17266023 -0.394224 -0.13792884
-0.13716723 -0.31894407 0.16086763 0.073802404 -0.112929605 0.3002234 -0.34767443 -0.26023376
0.28095457 0.28491783 -0.45574525 -0.3790267 0.052037604 -0.46987075 -0.056099396 0.22243656
-0.03018233 -0.57853234 -0.12513147 0.49454892 -0.0975389 0.0451402 -0.36850247 -0.20520401
-0.23390466 -0.2838508 -0.10351175 -0.090543985 0.08476317 -1.0474602 -0.15437613 0.16771662
-0.56485957 0.2538384 0.29190907 0.12505217 -0.33033845 -0.4051052 0.08781572 -0.07953205
0.31139553 -0.2849119 -0.24835539 -0.2671221 -0.3908067 0.5271512 -0.29305324 -0.32786006
-0.23867917 -0.31962138 0.46070653 -0.37561423 0.22089724 -0.099994525 0.009303434 -0.23502532
0.39243987 0.26286438 0.0072117755 0.22177052 0.13165419 -0.19838604 0.39683184 0.4642927
0.08114606 -0.43821746 -0.44364363 -0.4414634 -0.15281962 0.30725932 -0.7189838 0.1557315
-0.4581776 0.37370244 -0.4362529 0.27973884 -0.11124407 0.27486223 -0.42614248 -0.3115526
0.07532793 -0.4766332 -0.26374298 -0.44113302 0.4121386 0.15032005 -0.04115538 0.28319913
-0.39553595 0.36313528 0.027475186 -0.006549093 -0.10280717 -0.31055123 0.12528731 0.29254916
-0.55966026 -0.14513512 -0.009084837 -0.4472144 -0.47893864 -0.19679569 0.39215508 -0.20146227
0.3179586 0.35274422 0.21662802 -0.23830575 -0.38612443 -0.12465708 0.05685613 0.23693945
0.075385176 0.16610228 -0.26101157 -0.5508239 -0.07079631 0.28890687 -0.072173536 -0.43917364
-0.3697002 -0.3605253 0.31483495 -0.34961498 -0.3245784 -0.13947174 0.33041045 -0.0776834
-0.44348937 -0.2559525 0.20323859 -0.26688802 0.18463685 -0.35471246 -1.0340489 -0.51391816
0.0532778 -0.0052166735 -0.26336855 -0.36834717 -0.41970405 0.260059 -0.0046888166 0.5088495
-0.13096146 -0.35266262 0.45265925 -0.3613973 -0.26457402 0.25945097 -0.29712918 0.23255517
0.16290827 -0.093356706 0.35786727 0.38270295 0.34680864 -0.74258035 -0.42140117 0.28270882

user_mlp.0.bias f4 [64]
00000000: 48dd 1c3e 8a6f 333c c750 aabd e28f 983e
00000010: ba37 9a3e 7051 aabd e916 a63e be80 243e
00000020: 18a6 b3bd 881d a1be 2aac d4be 5644 89bd
00000030: a692 85be 49a0 033e a37b e2be 855f 84bc
00000040: b2d2 5e3e bacc bf3e 2053 79bd 2912 3b3d
00000050: 20d8 6fbd 7a69 f63d 9b27 333e 6030 8ebd
00000060: 9996 073e 9d5c 593e 74fb 2e3e 2d8d 983e
00000070: a876 183e 4cc9 b83e fa41 b7be 7dfc 243e
00000080: 2fd6 723e 878b 893e f455 db3e 1b9f 773e
00000090: fe96 cabe 1b1f b33c 969c acbe 594a 81be
000000a0: c035 2dbd 675d c1bd 55de c03e 8783 4ebe
000000b0: 703c 1bbe 1b5c b3be 2306 c3be b493 16bd
000000c0: 5bcf ff3e 8892 723e 20fb 3cbe 66b1 cc3d
000000d0: c205 e63e 1667 c1be 2a20 f8be fad0 3c3e
000000e0: cf74 df3e 605c d93e 8529 d53e 527c 89be
000000f0: 0717 7f3e e9da 943d ebda dabe 58ae 85be
0.15318787 0.010951886 -0.08316188 0.29797274 0.3012064 -0.08316314 0.32439354 0.16064736
-0.08771914 -0.31467843 -0.415376 -0.06702487 -0.26088446 0.12854113 -0.44234952 -0.016158829
0.21760061 0.3746088 -0.06087029 0.045671616 -0.058555722 0.12031837 0.17495577 -0.069428205
0.13241042 0.21226735 0.17088109 0.2979521 0.14889014 0.36091077 -0.35792524 0.16111942
0.23714517 0.26864263 0.42839015 0.24181788 -0.39568323 0.021865418 -0.33713216 -0.25252035
-0.042287588 -0.09441643 0.37669626 -0.20167361 -0.15159774 -0.35031208 -0.3809062 -0.036761954
0.49962887 0.2368871 -0.18455172 0.099947736 0.44926268 -0.3777396 -0.4846204 0.18439093
0.43643805 0.4245329 0.4163324 -0.2685266 0.24911128 0.07268316 -0.42745146 -0.26109576

user_mlp.2.weight f4 [32, 64]
00000000: c47a 4a3e 4fcd 2bbe a39a 743e 960e 843d
00000010: bf73 c9be b0a1 a83d 3a84 303e 6e26 83bd
00000020: 0085 3c3c 9c9f d53d 1801 dfbe aea6 13bc
00000030: b8bb 243d 92d2 b23b af0b 3b3e 1d6b 2a3c
00000040: 17eb 3c3d 28fe f6bd 7053 153d a917 243e
00000050: 7057 e3bd 54c6 d6be 0960 05be a834 903d
00000060: 69c2 1abe 4433 02be 9aa4 f4bd 7339 c83d
00000070: 7b5d 18be 4ba2 0cbe 3028 313d 2910 823c
00000080: ea16 143d 5dce 01be a2e1 00be 452a 5abd
00000090: b6bb e2bd f52c cfbd 288f 193e a8d3 d6bd
000000a0: 9cad 4dbd 7063 4abe 68fb 833d 354a 853d
000000b0: 303f 323d bdfb 3e3e d017 853d 8c9b df3b
000000c0: 9dc4 77bd 92a0 ecbd abc9 173e 6a7d 3ebc
000000d0: 4bdd 42bc 60da c6bc 5acc bdbd 68e1 a23c
000000e0: b5d1 823d 06b2 25be 93ec fabd 4176 00be
000000f0: 68f2 8fbe c67a c3bd 56e7 c23d 90ca 593f
00000100: 9388 323c 1cf4 3a3e 717b 23bd 456a 893d
00000110: e3fd 083f b899 ffbc f4fa e13e 7106 45bd
00000120: 5c3f b9bd 384c ca3d d0d3 3f3f f8c1 ff3c
00000130: 1ab5 f53d 5950 8d3d 598e bfbe 958e 643e
00000140: 3e99 30be 1ccb 063e d2ca bcbd 102d b1bd
00000150: 3013 cb3c d592 c03e 6adf 6a3d f017 1e3d
00000160: a61d bebd 7b73 4a3d 04b4 3c3d bdbc dd3d
00000170: c5ab 703d 941f b1bd 00ca 7b3d a42d aa3e
00000180: f553 c23d 7d79 903d 2352 28bd 1d48 99be
00000190: ba6f 8cbd 228a 2d3d be67 74bd 0a45 443e
000001a0: 08f9 ecbd 1e17 e93d c551 583d 048c babb
000001b0: a018 d0bc da7b ccbd 73b2 c33d 7fd7 cc3d
000001c0: bb92 6abe cd57 cebd ce85 6d3e 0fdd 3a3d
000001d0: 4129 c63d 6082 1f3c f03b d6bd 80be 443d
000001e0: ccaa 093e 1c30 60bb 08ed 0c3d f242 8c3c
000001f0: 8bdc 273e 894f e1bd bc30 90be 6db3 843d
00000200: 3385 773e 4bb7 66be bb49 8e3e 27d1 b2bd
00000210: 149e b4be 68b2 56bd f5e7 9abd 7e3d 08be
00000220: ce86 c6bd c053 f2bc 44f3 26bf bcdc 603c
00000230: c442 9c3d af06 24bd fcd5 553e a5ed c43d
00000240: 866d a53d ced6 debd e41c eabd e5e4 583e
00000250: 8045 843b 2ae2 c7be 43ca 16be 7844 243d
00000260: 3bbf cfbd 1c5f af3d 8b70 9d3d 6dbf b43d
00000270: 67fd 463d 159d aabb b0d1 753d 0deb 9dbe
00000280: 5a68 7a3c f1b9 42bd 97b4 6a3d 6032 4c3e
00000290: 047d 48bd fdd2 bc3d 1833 5cbb 3dbe 6f3c
000002a0: 4411 da3d 917f 98be aed4 a2bd 59bd cdbd
000002b0: f01c 4a3c 3c79 a83e 50b0 183d 016c 49be
000002c0: 55c0 2c3d 9473 3d3d 04af 80bc ff82 4d3d
000002d0: 3e63 97bd 3cec 51bd 1c72 e1bd 4fca 92bd
000002e0: 87db 613d a278 94be 7ba0 c0bd 2ef2 313c
000002f0: 7f75 39bd 8c00 603d 92f3 633e 8d2e e43e
00000300: e61b afbd 5346 d03d 76ea 13be c495 8d3d
00000310: 8afd 643e 029c af3d 89f0 d83e 95bc 8d3d
00000320: a00a 263c c0c9 96bb 8110 573f bd3b 993d
00000330: f439 943d e41e b0bc bcb0 f7bd 806a 2dbd
00000340: 4dc7 75bd ddd6 e4bb 8403 d4bd 0243 03be
00000350: d4c8 73bd 9d78 893e dcb7 403b 341c c4bd
00000360: fdbe 6d3b 1687 b23d 4321 ce3d 3a32 a3bd
00000370: ca5b f8bc 0b4e 07be e4b9 e2bd f5eb 083f
00000380: f8ff 0dbd 6c6f 6bbd 3351 40bd 6a95 a0bd
00000390: e8d4 b7bd 145c 92bb 8acb bc3c 25ee c73c
000003a0: 309b 50bd 6c63 87bd a25e 1f3d ecf1 cf3d
000003b0: 943a a7bd e957 29be 6c32 853d 36dd 973d
000003c0: d2bc cbbe 0ef3 b7be 3401 3d3e 871f c83c
000003d0: 54e8 1abd 0614 cbbd 8cbd 083d 603c babd
000003e0: d758 b5bd cd19 aa3e 3df2 ad3d 951e 61bd
000003f0: 3e0e 47bd 333a 6ebb f210 62be cfa4 c7bd
0.19773394 -0.16777538 0.23887114 0.064480945 -0.3934612 0.082339644 0.1723794 -0.06403814
0.011506319 0.10430834 -0.43555522 -0.0090119075 0.040218085 0.005457231 0.18266176 0.010401514
0.046122637 -0.12060195 0.036456525 0.1602465 -0.11100662 -0.41948187 -0.13024916 0.070412934
-0.15113224 -0.12714869 -0.11945458 0.097765826 -0.1487941 -0.13733785 0.043251216 0.015876846
0.036154665 -0.12676378 -0.12586072 -0.053262968 -0.11070959 -0.10115997 0.14996016 -0.10489589
-0.050214395 -0.19764495 0.06444436 0.065082945 0.04351729 0.18650718 0.064986825 0.0068239626
-0.06049024 -0.11554064 0.14823024 -0.011626581 -0.011893581 -0.024274051 -0.092674926 0.019882873
0.06387655 -0.16181192 -0.12252154 -0.1254511 -0.2811463 -0.095449015 0.0951678 0.8507471
0.01089682 0.18257183 -0.039912645 0.067097224 0.535124 -0.031201228 0.44136775 -0.048101846
-0.09045288 0.09877819 0.74932575 0.031220421 0.11997433 0.06900091 -0.3741329 0.22320016
-0.17245957 0.13163418 -0.092183724 -0.08651173 0.024789423 0.37612024 0.05734197 0.038597047
-0.09282999 0.049426537 0.046070114 0.108270146 0.058757562 -0.08648601 0.06147194 0.33237946
0.0948867 0.07054422 -0.041093957 -0.2993783 -0.06857248 0.04236806 -0.05966925 0.19166961
-0.115709364 0.113813624 0.052812357 -0.0056929607 -0.025402367 -0.0998456 0.09555521 0.1000204
-0.22907536 -0.100753404 0.23195574 0.045620974 0.09675837 0.009735674 -0.10460651 0.048033237
0.1344406 -0.0034208363 0.034405738 0.017121766 0.16392724 -0.11001498 -0.2816218 0.06479535
0.24171905 -0.22530858 0.27790627 -0.08731299 -0.35276854 -0.052416235 -0.075637735 -0.13304707
-0.09693681 -0.02958095 -0.65214944 0.013724502 0.07629922 -0.040045436 0.2088241 0.096156396
0.080775306 -0.108808145 -0.11431292 0.21181066 0.0040366054 -0.39039737 -0.14725594 0.04010436
-0.10143896 0.085630625 0.076874815 0.08825574 0.048581507 -0.005206714 0.060014427 -0.30843392
0.015283668 -0.04754061 0.05730113 0.19941092 -0.04894735 0.0921993 -0.003359979 0.014632759
0.106478244 -0.29784825 -0.07950722 -0.10045881 0.012336001 0.32904994 0.03727752 -0.19670106
0.04217561 0.046252802 -0.015708454 0.050173756 -0.07391976 -0.05125068 -0.11008093 -0.071674936
0.055141 -0.28998286 -0.09405609 0.010860963 -0.04527807 0.05468802 0.22260883 0.44566765
-0.08550243 0.10169663 -0.14444908 0.06913331 0.22362342 0.08574678 0.42371014 0.06920735
0.010134369 -0.004601687 0.8400956 0.07482097 0.07237616 -0.021499105 -0.12094256 -0.042337894
-0.06000452 -0.0069836215 -0.10352233 -0.1281853 -0.059517696 0.26849833 0.0029406464 -0.09575692
0.0036277168 0.08717172 0.10064938 -0.07968564 -0.030317206 -0.13213365 -0.11070612 0.5348504
-0.03466794 -0.057479307 -0.046952438 -0.078409985 -0.089761555 -0.004466543 0.023046274 0.024405548
-0.05092925 -0.0661076 0.03890861 0.10153565 -0.0816547 -0.16537441 0.06503758 0.074152395
-0.39792496 -0.35927624 0.1845749 0.024429096 -0.03781922 -0.099159285 0.03338389 -0.09093547
-0.088548355 0.3322281 0.08493469 -0.054960806 -0.048597567 -0.0036350607 -0.22076777 -0.097482316

user_mlp.2.bias f4 [32]
00000000: 34c0 083d ca7b 58bd 1384 eebd 43e0 203d
00000010: 8d70 a6bd ac5c afbd 053e 3bbd 990a b43d
00000020: 8431 4e3b fc24 14be 5e66 d03c 03d1 a93c
00000030: 0ccd 73be fff7 95bd 9225 e1bc db8b 0a3b
00000040: 32f0 e5bd 31f0 a4bd 7c99 083e c064 ea3d
00000050: 88de 84bc d0c2 843d 2a4b f5bd d3b0 c6bd
00000060: ae88 9c3d a76c 233d 871b 2ebe a10f ff3d
00000070: 7927 bfbd 4b2b abbd 19f6 22bd c1d3 833d
0.033386424 -0.05285243 -0.11646285 0.039276373 -0.08126936 -0.08562598 -0.045713443 0.08791084
0.003146262 -0.14467233 0.025439437 0.020729547 -0.23808688 -0.07322692 -0.027483735 0.002114049
-0.11227454 -0.080536254 0.133398 0.11444998 -0.016219392 0.0648247 -0.11977227 -0.09701695
0.07643257 0.03989854 -0.17002688 0.12454153 -0.09333701 -0.08357867 -0.03978548 0.06436873

item_mlp.0.weight f4 [64, 4]
00000000: e4cd 3d3e a603 17be 8bee 013e 62e0 01bf
00000010: d8e3 a83e d861 52be 923c 9abe 2096 893c
00000020: 3e01 963e 2596 163e 25a0 b83e 3053 ddbe
00000030: 7ccf ce3e e056 2b3e 2060 ebbe 2514 e8be
00000040: 5817 debe 182f e33d 50a3 19bd dadf fd3e
00000050: 30d8 dd3e 7350 d53e 938a 13bf c86e ebbe
00000060: 9840 12be 90f1 6cbd 88e3 9b3d 30fa b73d
00000070: a39d 3ebe 9049 be3e e9eb 0abe 96f9 9f3e
00000080: 64c0 2f3e e3ab cdbe 7170 cf3e 43e5 b43e
00000090: d44b c83e 0559 06bf 3593 373e b36a 02bf
000000a0: f41c 1f3e 9056 53be 162a f43e d87d 9ebd
000000b0: 8034 20bc d08a 8fbd 6247 ac3e 667d e3be
000000c0: c2fc 113e 3183 d2bd be30 10bf 338f bc3e
000000d0: c6d4 82be 40aa f6be 9eda fcbe ead7 e1be
000000e0: b5f1 a9be d578 983e 42ce 37be 4052 703d
000000f0: 097a 95be de6c bfbe d3d7 9bbe c2e2 cc3e
00000100: 18ba c03e 57da bcbe 9b8c 07be 38c6 57be
00000110: ee77 d8be cf35 8f3e 445f 79be 68a5 c83e
00000120: 1d99 bc3e 97d2 f9bd 011c a6be 9e0e a1be
00000130: 0322 05bf 276a 663e 9d0a 983d 009f 413e
00000140: 731d 12be 20c9 8b3e c556 d63e ced2 223e
00000150: 3ef7 353e 5218 4d3d 78c0 d7be 55e7 27bd
00000160: bcbb 34be 2201 a4be c0ab eebc ec9f ffbe
00000170: 5578 acbe 5ad1 0c3f a532 41be 5ea1 913e
00000180: d4d3 c43e 243b 62be 2acb 57be c21a c5be
00000190: 73f4 08bf b1a8 153e 66d8 eb3e fe2f 8fbe
000001a0: 9821 56be 4025 233e 74d5 f1be 1a4d a9be
000001b0: 64ac f63c b114 24bf a886 06bf bfa9 f13e
000001c0: 7492 57be 5676 8ebd 397f debe fd2e 8e3d
000001d0: 8ec9 24be b682 50be 646e 3abe c713 82be
000001e0: cf4f e33e 1497 cabe 2e21 d53e 1c5a 2b3e
000001f0: 790d e23b 6977 22be 6f66 e6bd ce4b dfbd
00000200: 443e 4fbe aaff bebe 60f4 b3be 0e6b 9abe
00000210: 9842 f63d 94f2 063e 52f6 b2be 4ec3 e7be
00000220: 284e 063e aa0e e8be 2c8b 4dbe b6fb 94be
00000230: 383e cebe e58b 583e 56e1 703e 5f5e 49bd
00000240: 1968 2b3d 4d10 95be d4fb 643e 1234 563e
00000250: 3386 ebbe 2284 d8be d8d2 06bc b53f 023e
00000260: c641 a4be 1099 a43d 2242 efbe a4b6 dcbe
00000270: 66c3 64be f4e6 00bf daaf d23e 01b5 9a3e
00000280: c0d8 c93e 1f57 e4be 7e81 713a 4d99 363e
00000290: 7c19 2cbc 3aa9 93be 3a87 5abe 91b4 dbbb
000002a0: 8c7d 503e d09d aa3e 4852 ccbd 322a eebe
000002b0: 3104 b9be ba4b 2a3e 9b78 b13e cbae f3bd
000002c0: 3377 17bf 0a73 16bd 84eb 1fbe a91a 9f3e
000002d0: 1ed2 f8be ea81 a33e 8e4e c63e e05f 68bd
000002e0: 4272 9ebe 9544 25be e457 c73e 4a21 3e3c
000002f0: f641 e7bd ba88 84bf 5b6e b1be 4e32 1c3e
00000300: bc8b 6ebe 1049 a7be 54f4 503c 2c99 91be
00000310: 7065 a6bd fcfb a2be c8f4 853d 5c0e babe
00000320: e846 84bd f0b5 2a3e 7885 cbbe 6053 91be
00000330: 6ab7 2bbe 5f43 14bf e668 583e 5289 f33e
00000340: 1a7a e33d 1c33 a9be 8b5d bf3e 9c8f 7d3e
00000350: 3899 6e3e cc99 133e f153 09be a1f6 83bd
00000360: c09d 3c3e 079b b43d bdb1 bfbe 71a2 b6bd
00000370: 094a f1bd 5c9e 423e f7b1 993e 0382 c8be
00000380: f887 e23d 5a4b a83e d202 97be f8cb a7bd
00000390: a52a 8e3e b7ea fdbd 9d24 12be 47ba ddbe
000003a0: 740b 00be 4dae 5abe 5269 483e 0f2c 94be
000003b0: e8c3 a03e 981d 88be 1c81 9d3e 04cb 08be
000003c0: 7688 143c e729 2fbc b3cd 0dbf 1cb2 023b
000003d0: 7cb3 b53d 1f42 b53e 1e88 4e3e d294 dabe
000003e0: fc91 8b3e 786f 19bf 8f97 e2bd 9b94 b8be
000003f0: fde9 b1be 7794 7d3e 5c4f 243e 6c53 213e
0.18535572 -0.14747486 0.12688653 -0.50733006 0.3298633 -0.20545137 -0.30124336 0.016795218
0.29297823 0.14705713 0.3605968 -0.4322753 0.40392673 0.16732359 -0.45971775 -0.4532787
-0.43377185 0.11092967 -0.037509263 0.49584848 0.43329 0.4166294 -0.5763332 -0.45982957
-0.14282453 -0.05784756 0.076117575 0.08983266 -0.18614821 0.371655 -0.13566555 0.31245106
0.17163235 -0.40170202 0.40515473 0.35331163 0.39120352 -0.52479583 0.17927249 -0.5094406
0.15538388 -0.2063849 0.4768836 -0.077388465 -0.009778142 -0.07008898 0.3364821 -0.4443161
0.14256576 -0.10278929 -0.56324375 0.36828002 -0.25552958 -0.48176765 -0.49385542 -0.44110042
-0.3319222 0.29779688 -0.17949775 0.05867219 -0.29194668 -0.37387747 -0.30438098 0.40016752
0.37641978 -0.3688533 -0.1323723 -0.21071708 -0.42279 0.2797074 -0.24352747 0.39188695
0.36835566 -0.1219837 -0.3244324 -0.31456465 -0.5200502 0.22501431 0.07423899 0.1890831
-0.14269046 0.27301884 0.41863075 0.15900728 0.17770097 0.05007202 -0.4213903 -0.0409921
-0.1764974 -0.32032114 -0.029134631 -0.49926698 -0.33685556 0.55006945 -0.18866976 0.28443426
0.38442862 -0.22092873 -0.21073595 -0.38496977 -0.53498 0.14615132 0.46063536 -0.27966303
-0.20911252 0.15932178 -0.47233164 -0.33066636 0.0301115 -0.6409407 -0.5254922 0.47199818
-0.21051961 -0.069561645 -0.43456438 0.06942556 -0.16092512 -0.20362362 -0.18206173 -0.25405714
0.44396827 -0.39568388 0.41626877 0.16733593 0.0068985787 -0.15865864 -0.112500064 -0.109031305
-0.20238596 -0.3730443 -0.3514738 -0.301598 0.120244205 0.13178474 -0.34953552 -0.45266193
0.13115752 -0.45323688 -0.20072621 -0.2909829 -0.40281844 0.21147116 0.23523459 -0.049162265
0.041847322 -0.29114 0.2236169 0.20918301 -0.46000823 -0.4228831 -0.00822898 0.12719615
-0.3208143 0.08037007 -0.46730143 -0.43108094 -0.22340164 -0.50352407 0.4114979 0.3021622
0.3942318 -0.44597718 0.0009212716 0.17831917 -0.010504123 -0.28840047 -0.21340647 -0.006704875
0.20360392 0.33323526 -0.099766314 -0.46516567 -0.3613601 0.1663045 0.34662327 -0.118985735
-0.5916626 -0.036730804 -0.15617186 0.31075028 -0.48597807 0.31935054 0.38731807 -0.05673206
-0.30946547 -0.16139443 0.38934243 0.011604616 -0.11291878 -1.0354226 -0.34654507 0.15253565
-0.23295492 -0.3267293 0.012753565 -0.28437173 -0.081248164 -0.31832874 0.06540829 -0.3633908
-0.06458837 0.16670966 -0.39750266 -0.28383923 -0.16769186 -0.579153 0.21133766 0.47565705
0.111072734 -0.33046806 0.37376055 0.24761814 0.23300636 0.14414138 -0.13410927 -0.06443525
0.18419552 0.088186316 -0.3744029 -0.08917702 -0.11781699 0.19005722 0.3001859 -0.3916169
0.1106109 0.3286999 -0.2949434 -0.08193201 0.2776691 -0.12398284 -0.1427178 -0.4330618
-0.12504369 -0.21355553 0.19571427 -0.28939864 0.31399465 -0.26585078 0.30762565 -0.13358694
0.009065738 -0.010691143 -0.55392 0.0019942587 0.088721246 0.3540201 0.20169112 -0.42691666
0.27259815 -0.5993571 -0.11064064 -0.36050877 -0.3474883 0.24763666 0.16045898 0.15754479

item_mlp.0.bias f4 [64]
00000000: 748f 353e fc5d 39be 5a63 0c3c ddcc ae3e
00000010: 9632 c3be 7dad 113e 5459 fcbe 9a87 90be
00000020: d9e2 19bf e6d2 b43e 1210 d8be 3648 bcbe
00000030: 8739 54bd 4a64 ef3e f717 a23d a2a4 283e
00000040: b9b6 88bd de75 d5be 6331 253e 8ad8 b93d
00000050: 172d 84be 7ead e63b d8e2 26be f8bf 88be
00000060: 2874 6e3e 154e 5e3e e299 d1be d0c5 713c
00000070: dcb2 763e 9cf1 c33e 52ed 20bf 404a ed3d
00000080: f85a e83d c00f 06bc 2c72 9ebe 7756 9fbb
00000090: 17ca 03bd d0d4 933e 3434 7c3e b2b7 af3b
000000a0: 5933 0abe d3a3 e13d 5c56 30be d679 153e
000000b0: 27dc 8b3e 0c4a dabe 5045 333d aafb 793e
000000c0: b1c1 7a3e 8006 e9bd 3651 f5be 9c9b 1dbe
000000d0: b9cc edbe 8aec bebc d0bf cdbc 6962 583e
000000e0: 427d a1be 0ea0 3c3e d366 7f3d 3edd bfbe
000000f0: 9521 f23d 6ad5 49bd 2fbf 7e3e dc1a 86bd
0.17730504 -0.18102258 0.008568609 0.34140673 -0.38124532 0.14226337 -0.49286902 -0.28228456
-0.6011177 0.35317153 -0.4219976 -0.36773843 -0.051812675 0.46756202 0.07914727 0.16469052
-0.066754766 -0.41691488 0.16132121 0.09074505 -0.2581565 0.007039725 -0.16297472 -0.2670896
0.23286498 0.21709473 -0.40937716 0.014756635 0.24091667 0.3827027 -0.6286212 0.11586428
0.11345476 -0.008182466 -0.3094648 -0.0048626023 -0.03217515 0.288733 0.24629289 0.0053624744
-0.1349615 0.11017575 -0.17220443 0.14597258 0.273164 -0.42634618 0.043767273 0.24412408
0.2448795 -0.11378193 -0.47913522 -0.15391392 -0.46445253 -0.02330615 -0.025115877 0.2113129
-0.31540877 0.18420431 0.06235392 -0.37473482 0.118228115 -0.049275793 0.24877618 -0.06548092

item_mlp.2.weight f4 [32, 64]
00000000: 924c 273d 2cf4 5e3d cf56 0bbb 7066 47be
00000010: ec7f 373d 9d10 4b3e 7012 663d 94d5 ab3e
00000020: a574 51be cd78 c5bd 00d6 e73c 6211 f63d
00000030: 81f6 e5bd dae0 d53d 9676 e33d 27ae 023d
00000040: 3a72 433d 624a 483d f3a4 02be 8468 cfbd
00000050: 28f7 283d d1bc 173d a86a 973d 6aec 553e
00000060: dd07 47be a24a c33e 40b2 22bd 360a aebd
00000070: 4dd4 c1bd 2391 cdbe f74e 49be 799d 57bd
00000080: 8afd 8abd e082 f63b 30eb 9ebc bebe 913d
00000090: b2a5 263c 6adc 3ebd 9a98 89bd 3494 9f3d
000000a0: 5b56 ec3d b0b8 cbbd d8a8 dfbd f2d2 60bd
000000b0: fb7b f0bd 00f9 f0bc 91de 263e d9a1 fc3e
000000c0: 0818 93bc ece2 b1bd 1a4f f33d 49c6 6b3e
000000d0: 4c92 babd b3a8 e0bd 218c 523d b331 2c3e
000000e0: 6812 e4bd fe6b a83c 4066 a03d 305a c63c
000000f0: 9ff2 063e e89d 0fbe 8767 3f3e 345a 07bc
00000100: 8d86 debd f85f bebd 2029 9a3d 35bd 0c3e
00000110: 1c82 593d e599 11be e639 d03d 74c8 893e
00000120: 65f9 8c3e d56a 30bd a05f c93b c4d4 cdbd
00000130: f422 34be e04c cb3b c9e1 dabd b46b 063e
00000140: 2bb1 e73d c194 c63d 84a2 913d 7ab3 f1bd
00000150: d15f 3bbe 7b9b 5ebd 4c72 0e3d 2c79 df3d
00000160: a326 803e fab5 efbe 8edb cebd 07d2 bcbe
00000170: 1573 3d3d ca02 f33d b3b8 e53e 378e 4c3d
00000180: 0676 8dbd 9800 d93d 00e7 4fbd 8ba7 fdbd
00000190: 84f1 27bb 0e24 343e ee35 cf3d 6251 06be
000001a0: e3eb afbc dc4e b4bd e2e9 993d 74bb 2d3b
000001b0: 9903 27bd 74c3 333d 52cc b73d e7f6 e6be
000001c0: aa50 b6bc 9c46 0f3d 20db a9bd a80e 5ebe
000001d0: 636d 653e 5b27 b4bc 1b39 87bd 3969 80ba
000001e0: 6e0d 82bd 0d5d c23d 6ab8 b13d 742d 523d
000001f0: 72e2 53be c902 953e eae4 0ebe 53a4 c33c
00000200: d3fa e43d 00f5 28bb 697f 38bc 4e93 bcbd
00000210: 88ce 413d 7d0e a73e 44be 5fbd 39d5 5cbe
00000220: afa6 5abe d2f3 a13c e6b6 d33d 20e3 e83c
00000230: 580f 27bd 4a28 f1bd b2a3 f0bc 0110 b7bd
00000240: 7cb5 19bd f2e3 e53d db46 20be 290b 0abd
00000250: 41ed dd3d 5050 d83c 7c00 4a3d c9d2 23be
00000260: 5cb1 02bd b000 023f 8405 0b3d f859 793e
00000270: d527 9ebd fa7e 0dbf c01a 00bf 26cf 643d
00000280: a850 afbd 68f9 e3bc 984a d6bd 1cb3 c7bd
00000290: a040 88bc ec51 1abd 3c03 383d 9db7 853d
000002a0: c7d9 c83c f2fb 383d 9699 8f3d 8aaf 2c3d
000002b0: 1b12 88bd d4f0 953d 92dd dd3c f24c 3f3f
000002c0: 5e10 4f3d d0af 403c 560c 903d 142a 3a3e
000002d0: 9a06 43be 9683 b53d c31f a83d bd87 283e
000002e0: 2c71 603d 41b3 dfbd 52a3 d6bd e898 27bd
000002f0: b68b 003e 85b6 9abe eaf0 6f3e 9945 d3bd
00000300: fe2f 81bd 60fa f03d b653 893d 2551 c1bc
00000310: c0e3 40bb 9cad 12be ca1a fc3d a9db 05bd
00000320: 644b b03e ac92 e9bd 905a abbd 4a92 d63d
00000330: 067e ee3b 5845 fcbd 472c 543d ad82 6dbd
00000340: 7e4f babd 9c2f b33d 0a0d 093d 5474 ee3d
00000350: 8472 ddbd 7d9d 5b3d dee5 d03d 8fe5 f53c
00000360: f56e 813d 6f1e 80be d068 773c 6c8c 2fbe
00000370: 3154 1fbd 6398 b53e 1d1f 953e 25a9 e5bc
00000380: e087 2a3d 32e0 993d a0ee f63d 2236 1cbd
00000390: 7632 93bd aee4 43be 3c4e 2f3d 6e98 c5bd
000003a0: b0a9 263e 2b8b d33c 38c4 d83d 6313 f2bd
000003b0: ac55 ee3c da8b fa3d ab68 bbbd 256a b3be
000003c0: e71e 73bd 26c0 c93d 1cc5 8a3d 794d cc3d
000003d0: a43e e33d 261d 87bd 1b64 6fbd c80b 043a
000003e0: b06d 343c fc11 6f3d 9055 35be 3cbf c7bd
000003f0: fbbb fdbd d1e8 53bd 121c 623e 08b2 993d
0.040844508 0.05443208 -0.0021261459 -0.1947267 0.04479973 0.19830556 0.056169927 0.33561385
-0.20454653 -0.096421815 0.028300285 0.12015034 -0.112286575 0.10443278 0.11106603 0.031904366
0.047716357 0.048899062 -0.12758236 -0.10127357 0.04125133 0.037045304 0.0739339 0.20890966
-0.19436593 0.38142878 -0.039720774 -0.08498041 -0.09464321 -0.40149793 -0.19659029 -0.052640412
-0.0678664 0.0075229257 -0.019399256 0.07116459 0.010171341 -0.046596922 -0.067185596 0.077919394
0.115399085 -0.09947336 -0.10920876 -0.054888673 -0.117423974 -0.029415607 0.1629584 0.4934223
-0.017955795 -0.0868586 0.11880322 0.23024859 -0.09109935 -0.10969677 0.05140317 0.16815834
-0.11136323 0.020559307 0.07832003 0.024212927 0.1317849 -0.1402508 0.18691836 -0.008261252
-0.10865507 -0.09295648 0.07527375 0.13744052 0.053102598 -0.14218862 0.10167293 0.26910746
0.27534023 -0.043070633 0.0061454326 -0.100503474 -0.17591459 0.0062042326 -0.10687596 0.13127023
0.11313089 0.09696341 0.071110755 -0.118018106 -0.1829827 -0.054347496 0.03477697 0.109117836
0.25029477 -0.46818525 -0.101004705 -0.36878988 0.04625233 0.11865766 0.44867477 0.049940314
-0.06907277 0.105958164 -0.05075741 -0.12385472 -0.0025626132 0.17591879 0.10117708 -0.13116983
-0.021474784 -0.08804104 0.07515313 0.0026509436 -0.040774915 0.04388757 0.08974518 -0.45110247
-0.02225526 0.034979448 -0.08293748 -0.21685278 0.22405009 -0.021991422 -0.06602689 -0.0009796984
-0.06350218 0.09490404 0.08677752 0.05131288 -0.20691851 0.29103687 -0.13954511 0.023882067
0.111806534 -0.0025780797 -0.011260846 -0.09207784 0.047316104 0.3262824 -0.05462481 -0.21565713
-0.21352647 0.019769583 0.103376195 0.028428614 -0.040786117 -0.11775263 -0.029374931 -0.089385994
-0.037526593 0.11225118 -0.15652029 -0.03370205 0.10836268 0.026405483 0.04931687 -0.15998377
-0.031907424 0.507823 0.033940807 0.24350727 -0.07722441 -0.55271876 -0.5004082 0.055861615
-0.08560306 -0.027828887 -0.104634464 -0.09750959 -0.016632378 -0.037675783 0.04492496 0.06529162
0.024517907 0.04516215 0.07011716 0.042159595 -0.06644078 0.07321325 0.027083192 0.74726784
0.05055272 0.011760667 0.07033603 0.18180114 -0.19045487 0.08862989 0.08209183 0.1645803
0.05479543 -0.10922862 -0.1048037 -0.040917307 0.12553295 -0.30217376 0.23431745 -0.10316009
-0.06307982 0.11766505 0.0670542 -0.023598263 -0.0029432625 -0.14324039 0.12309797 -0.032680187
0.34432518 -0.114049286 -0.08366883 0.10477121 0.0072782068 -0.12317914 0.05180004 -0.05798595
-0.09097193 0.08749315 0.0334597 0.116432816 -0.10812858 0.05361699 0.10200094 0.030016689
0.063199915 -0.2502322 0.015100673 -0.1714341 -0.03889865 0.35467824 0.291253 -0.028034756
0.041633487 0.07513465 0.12057233 -0.038137563 -0.07187359 -0.19130203 0.04279922 -0.09648214
0.16275668 0.025823196 0.10584301 -0.11820104 0.029093586 0.12233706 -0.09150823 -0.3504192
-0.059355643 0.098511025 0.06775877 0.09975714 0.11095932 -0.065973565 -0.058445077 0.0005037156
0.01101248 0.05836676 -0.17708421 -0.09753272 -0.1238937 -0.051735703 0.2208102 0.0750466

item_mlp.2.bias f4 [32]
00000000: b14b 833b df57 b1bc ac71 7dbc 121c c9bb
00000010: eb35 003d 17f2 c6bd cb2d 69bb 1651 abbc
00000020: 7384 5ebd 8766 e4bc f92d 6ebd 2d04 073d
00000030: e6d5 94bd 64ec 7dbc d7b6 21bc 0719 6abd
00000040: 8d0b bb3d 9dab adbc dbdd cfbd 111b 48bd
00000050: 34d5 cabc 0579 01bd b5cb b93d e92e c3bc
00000060: 8a82 a03b 7733 fc3c 5d1e 1cbd 6b57 3d3d
00000070: f6f5 963d 47a8 a1bb ec7c 6f3c 53fe c03d
0.004006826 -0.021648346 -0.015468996 -0.0061373794 0.03130142 -0.09714144 -0.0035580273 -0.020912688
-0.054325532 -0.02788092 -0.05814931 0.032962967 -0.072673604 -0.015498254 -0.009870253 -0.057152774
0.091330625 -0.021199996 -0.101497374 -0.048853938 -0.024759866 -0.031609554 0.09072057 -0.02382608
0.004898374 0.03078626 -0.038114894 0.046225946 0.07371132 -0.0049333903 0.014617186 0.094235085
