model_weights.pth (torch, 23009 bytes, 8 tensors)

user_mlp.0.weight f4 [64, 4]
0.08813583 -0.473881 -0.0687891 0.36192098 -0.4234721 0.2071014 -0.42941487 -0.23082174
-0.37776306 -0.3828508 -0.002678331 -0.0012661018 0.24168502 0.5361516 -0.71834713 -0.08417325
-0.5046424 -0.2449124 0.25701645 -0.093644924 -0.1205802 -0.42592752 0.44174218 0.18250537
-0.5002677 -0.43210325 0.25272176 0.24318103 0.03644514 -0.0011087656 -0.44233847 0.0668568
-0.27470925 -0.6057154 0.38677526 0.04105594 -0.4948213 -0.254669 -0.46449918 -0.008120418
-0.12838688 -0.3282818 0.06943274 -0.23443958 -0.34643996 -0.13439202 -0.29147148 -0.21973544
-0.04802557 -0.5930177 -0.25737172 -0.23669235 -0.47784734 -0.0772112 -0.26839823 0.037986696
0.43674192 0.6475481 -0.056779638 -0.3340929 0.12603855 -0.29497162 0.029690584 -0.07690306
0.02047627 0.47444293 -0.24569723 -0.4436419 0.12640615 0.37741327 0.033587135 -0.17206776
-0.3610046 0.17355865 -0.33086818 0.08533853 -0.15735324 -0.20321581 -0.32476982 0.080062985
-0.122278914 0.5425373 -0.17827226 -0.21742938 -0.4280253 0.62497836 0.38667965 -0.35774216
-0.48577693 0.13359796 -0.28658175 0.2956138 0.3499128 -0.6671553 0.5233613 0.30116525
-0.02600633 -0.19145845 -0.26771644 -0.091253996 0.04683417 -0.31669432 -0.4512257 0.0012614131
-0.018191965 0.5428519 0.21473381 -0.318256 -0.5135632 -0.19701986 -0.43354556 -0.37678185
0.55318046 0.23991053 0.02359874 -0.2895444 -0.19284922 0.066844225 0.3210594 -0.25261873
-0.05154676 -0.101200685 0.1578676 -0.06631969 -0.40754303 0.6152382 -0.22404659 0.10595622
0.17260727 -0.12896727 0.5195514 -0.45701385 -0.2277968 -0.005488481 0.37433597 0.16548577
-0.054248482 -0.4879684 0.049452484 -0.68056244 -0.040022768 -0.25483426 -0.049760822 -0.06317984
-0.32620162 0.1270734 0.05151397 -0.19706911 0.18370564 -0.038144525 0.31940067 -0.48292506
0.35811526 -0.5946959 0.10639983 0.41950548 0.36049235 -0.39784867 -0.37835574 -0.037895024
-0.5985129 -0.10509143 -0.3190951 0.59496635 -0.15280372 -0.31589764 0.15860891 -0.2645256
-0.39204404 0.46212557 -0.5723385 -0.3992941 0.35743082 -0.24421392 0.07571149 -0.3137864
-0.29401 -0.31772888 0.40013573 0.2848359 0.16311812 0.023412298 -0.32552293 -0.14259817
-0.45353243 0.102386676 0.39941648 -0.4390821 -0.21558875 -0.35349977 0.46522322 0.41383278
0.048777957 -0.24268755 -0.2593523 0.3936274 -0.353899 -0.41902006 -0.06486529 -0.3835581
-0.8739964 0.17512321 0.5469019 0.25371277 -0.07888431 -0.43273926 0.31827378 0.28686643
-0.05183862 0.21785395 0.3608309 0.31746447 0.15874141 -0.25733495 -0.48713887 -0.058792114
-0.1291921 0.045304056 0.34789008 0.106766395 0.018773716 -0.28777298 0.15528405 0.07138471
0.091201335 -0.4243744 0.53969014 -0.0016952142 0.033368118 0.22864409 -0.5856084 0.18589899
0.05328299 -0.09732205 -0.20446572 0.059776295 -0.09954787 -0.90996724 -0.15219708 0.458497
-0.62186563 -0.18971959 0.0903881 -0.28343698 0.3269868 -0.38516933 -0.45064235 -0.45664746
0.28016746 0.17313287 -0.57384866 -0.21110621 0.021056931 0.20405942 0.16013545 0.40512255
00000000: 8f80 b43d 88a0 f2be 4de1 8cbd b54d b93e
00000010: 56d1 d8be 6412 543e 44dc dbbe 895c 6cbe
00000020: 296a c1be 0505 c4be f086 2fbb 54f3 a5ba
00000030: 477c 773e 3b41 093f 99e5 37bf 0663 acbd
00000040: 3f30 01bf 51ca 7abe a997 833e e9c8 bfbd
00000050: c0f2 f6bd 2c13 dabe 082c e23e b0e2 3a3e
00000060: 8b11 00bf a33c ddbe bf64 813e 7304 793e
00000070: 8047 153d 0054 91ba 307a e2be 38ec 883d
00000080: b1a6 8cbe 2a10 1bbf 6807 c63e 462a 283d
00000090: 3859 fdbe fa63 82be d6d2 edbe 800b 05bc
000000a0: da77 03be 8d14 a8be c132 8e3d ee10 70be
000000b0: 9460 b1be 109e 09be c03b 95be 5402 61be
000000c0: 76b6 44bd 02d0 17bf 3ac6 83be 7b5f 72be
000000d0: 68a8 f4be e820 9ebd 7e6b 89be f097 1b3d
000000e0: a39c df3e b6c5 253f c491 68bd 390e abbe
000000f0: 4010 013e 8506 97be ab39 f33c 5a7f 9dbd
00000100: dabd a73c 2fea f23e 0e98 7bbe 0825 e3be
00000110: 9d70 013e 503c c13e aa92 093d 8832 30be
00000120: 98d5 b8be 5cb9 313e 8e67 a9be f8c5 ae3d
00000130: 3521 21be ce17 50be 3b48 a6be 10f8 a33d
00000140: 5e6d fabd b9e3 0a3f 018d 36be cfa5 5ebe
00000150: 2226 dbbe 95fe 1f3f e0fa c53e fb29 b7be
00000160: c1b7 f8be e7cd 083e d8ba 92be b15a 973e
00000170: c527 b33e b1ca 2abf 02fb 053f 5532 9a3e
00000180: 3a0b d5bc af0d 44be 2112 89be 60e3 babd
00000190: 30d5 3f3d c225 a2be 0e07 e7be 0056 a53a
000001a0: 5107 95bc 58f8 0a3f 2ee3 5b3e 73f2 a2be
000001b0: e178 03bf 93bf 49be aff9 ddbe 8de9 c0be
000001c0: 3c9d 0d3f 1bab 753e 2552 c13c 2a3f 94be
000001d0: 447a 45be a0e5 883d e661 a43e 3e57 81be
000001e0: b222 53bd 4e42 cfbd 0ba8 213e 9ed2 87bd
000001f0: 7ba9 d0be 4080 1d3f 786c 65be 93ff d83d
00000200: f6bf 303e ff0f 04be 5201 053f b8fd e9be
00000210: 9043 69be b7d8 b3bb f7a8 bf3e 1a75 293e
00000220: a833 5ebd fed6 f9be b08e 4a3d 5739 2ebf
00000230: eaee 23bd a379 82be 01d2 4bbd 6f64 81bd
00000240: e603 a7be 881f 023e 5000 533d 7ccc 49be
00000250: 551d 3c3e 6f3d 1cbd 7c88 a33e f441 f7be
00000260: e25a b73e fe3d 18bf 27e8 d93d 6cc9 d63e
00000270: 7492 b83e d2b2 cbbe d8b7 c1be d037 1bbd
00000280: 2438 19bf 2d3a d7bd 6f60 a3be b74f 183f
00000290: 9478 1cbe 56bd a1be 606a 223e e66f 87be
000002a0: ffb9 c8be b99b ec3e c784 12bf 4770 ccbe
000002b0: 2c01 b73e 3713 7abe a00e 9b3d 9ca8 a0be
000002c0: 7b88 96be 5cad a2be 97de cc3e 03d6 913e
000002d0: 7008 273e 26cb bf3c f1aa a6be 4105 12be
000002e0: 6735 e8be 1bb0 d13d 5180 cc3e 5ecf e0be
000002f0: 4cc3 5cbe ecfd b4be bd31 ee3e e4e1 d33e
00000300: 65cb 473d 1683 78be d3c9 84be 8889 c93e
00000310: 4032 b5be cc89 d6be 18d8 84bd ba61 c4be
00000320: 3abe 5fbf 8053 333e c301 0c3f a4e6 813e
00000330: 198e a1bd 0090 ddbe c8f4 a23e 28e0 923e
00000340: bc54 54bd 1b15 5f3e d4be b83e b48a a23e
00000350: 1c8d 223e 68c1 83be 446a f9be 00d0 70bd
00000360: ef4a 04be bf90 393d a61e b23e 57a8 da3d
00000370: 56cb 993c fb56 93be c802 1f3e 2632 923d
00000380: c4c7 ba3d 9a47 d9be 2229 0a3f f331 deba
00000390: 02ad 083d ad21 6a3e 6fea 15bf 4e5c 3e3e
000003a0: 443f 5a3d c850 c7bd 765f 51be fdd7 743d
000003b0: c1df cbbd 9df3 68bf 8dd9 1bbe 1ec0 ea3e
000003c0: 9632 1fbf da45 42be 651d b93d a71e 91be
000003d0: d06a a73e ea34 c5be 98ba e6be b2cd e9be
000003e0: 1c72 8f3e be49 313e bfe7 12bf 3a2c 58be
000003f0: 967f ac3c f4f4 503e 8cfa 233e 396c cf3e

user_mlp.0.bias f4 [64]
0.2309309 0.27293015 0.26094037 -0.22314397 0.33488527 -0.47922575 0.11909255 -0.21348602
0.2358926 -0.25494266 0.18254322 -0.3342439 0.37195334 -0.21956402 -0.24913147 0.1744374
-0.38666287 0.22385529 -0.3450634 0.26753706 -0.26275185 -0.23086247 0.24701756 -0.32168204
0.296336 -0.37877387 -0.06045566 0.4510408 -0.14460954 -0.4258803 -0.025602458 -0.2461114
0.06706061 -0.0082352385 0.44816443 0.16986524 -0.43171197 -0.31353745 -0.19481409 -0.45991987
-0.053969953 -0.016978681 0.5038926 -0.07973315 0.016861586 0.20364425 0.42615092 -0.06643743
-0.23313795 0.14754498 -0.26899412 -0.44371942 -0.08392103 -0.1049422 -0.1697118 0.12328633
-0.12411313 0.10817913 0.21170309 -0.0053847665 0.42200038 -0.25759786 0.050193924 -0.114857465
00000000: 2679 6c3e 80bd 8b3e fa99 853e da7f 64be
00000010: 1576 ab3e 145d f5be cbe6 f33d 149c 5abe
00000020: d48d 713e d887 82be 9cec 3a3e 0422 abbe
00000030: ab70 be3e 64d5 60be 521c 7fbe b89f 323e
00000040: adf8 c5be 523a 653e 26ac b0be 9efa 883e
00000050: 6987 86be 3667 6cbe 2cf2 7c3e 82b3 a4be
00000060: 5ab9 973e a6ee c1be 5ba0 77bd d2ee e63e
00000070: 8614 14be fc0c dabe 3fbc d1bc a004 7cbe
00000080: 1357 893d 18ed 06bc cf75 e53e 27f1 2d3e
00000090: 5a09 ddbe fb87 a0be 587d 47be 9e7a ebbe
000000a0: 990f 5dbd e016 8bbc 1bff 003f 224b a3bd
000000b0: 4f21 8a3c 1e88 503e 7430 da3e 5910 88bd
000000c0: b7bb 6ebe 0816 173e 99b9 89be 312f e3be
000000d0: cade abbd f0eb d6bd eec8 2dbe 8b7d fc3d
000000e0: 062f febd 058d dd3d b2c8 583e b272 b0bb
000000f0: 6f10 d83e dee3 83be 2598 4d3d 643a ebbd

user_mlp.2.weight f4 [32, 64]
0.06929128 -0.5617427 -0.05494364 -0.5085506 -0.22547548 0.047335804 -0.090611465 0.10752885
0.08182355 -0.046145007 -0.017572468 0.04325567 0.30037484 -0.10741852 0.18956849 0.04038909
0.06305646 0.0477244 0.04879363 0.098802246 0.3995118 0.060324844 0.1861751 0.30975583
-0.049139895 0.029977739 -0.11760792 -0.91385716 -0.3772028 0.10688652 0.029266493 -0.24737135
-0.22543308 -0.14633605 -0.59533376 -0.06314453 0.051433086 0.057636894 -0.19584955 0.0011526942
-0.95720613 0.104029894 0.372086 0.66907597 0.07293139 0.11450885 -0.20594163 -0.20038627
-1.1358978 -0.008610532 -0.8865226 -0.10577392 -0.17975803 0.014698595 -0.079300486 -0.10048836
0.49189302 0.086920865 -0.033611473 -0.052570324 -0.2866216 0.010529757 0.30555633 -0.14881293
0.1245791 0.2871173 0.07735381 -0.55568314 0.30113935 0.054363787 0.11029658 0.04438618
0.29460326 0.11587469 -0.008145363 0.032814905 0.14756358 0.006768346 0.1570048 -0.020079829
0.03035108 -0.047379024 -0.017054468 -0.09456329 -1.7761886 -0.4897282 -0.07820809 0.0038131191
-0.056856256 -0.08462682 0.17237954 0.30640364 0.16456755 0.101174295 0.08004741 0.5522386
-0.16059372 -0.050522186 -0.4372871 -0.0732188 0.11768761 -0.022691542 0.012027628 -0.061613888
-0.21681717 -0.039275646 -0.09778979 -0.15382487 -0.12704022 -0.037568763 0.18683629 -0.23906249
0.40845114 -0.093604326 0.682611 0.018020669 0.07225984 0.04955603 0.042394485 -0.10399456
0.028158246 0.010717756 -0.07889756 0.38586223 -0.51378846 0.061853945 -0.17176463 -0.025166387
0.10065443 -0.44578 0.19097006 -0.5067004 -0.035327464 0.014547989 -0.061270464 0.120811
0.0773447 -0.122987166 -0.094140135 -0.08860633 0.20528312 -0.107268274 0.02285061 0.14774734
-0.09547208 -0.038733874 0.057665765 0.1971005 -0.07006058 0.23038593 -0.01340853 0.37871677
0.007174902 -0.03996831 0.14749566 0.08638845 -0.015841708 0.025454909 0.075945206 0.23313728
0.06535819 -0.15987717 -1.003172 0.14717616 -0.041796997 -0.114856824 0.2088091 0.07177408
0.037947208 -0.013218492 0.17373867 -0.13310106 -0.123279065 0.12385857 -0.050480645 -0.31217733
-0.3667846 -0.08651577 0.089327015 -0.07568807 -0.13955224 -0.0032203346 -0.12838219 -0.061227772
0.4412295 0.057073295 0.025997156 -0.13789019 0.38526973 0.07387568 0.19064695 -0.14762463
0.056400664 -0.06753497 -0.024313612 -1.0583355 0.030073494 0.103924334 -0.15023194 -0.08551645
0.065642245 0.08475886 0.11674552 -0.016705751 0.14126462 0.010969564 0.2038111 0.027892094
0.01766804 -0.10618714 0.12142065 -0.060142692 -1.7769082 -0.32441786 -0.10046633 0.03104144
0.022826454 0.04393837 0.25331146 -0.06221807 0.07447325 0.056915298 0.11801685 0.7046486
-0.13405457 0.03749564 -0.8844196 0.07817601 0.07821092 0.033470273 0.023823336 -0.05529131
-0.47037616 0.048421174 0.10337317 0.0366146 -0.1165996 -0.15384442 0.10515307 -0.34111154
0.02383047 0.11436725 0.25898778 0.10265218 0.05479111 -0.09089878 0.056347556 -0.14348039
0.13259442 0.026856748 0.02897193 -0.045446333 -0.49875575 -0.029603556 -0.3301544 -0.01777979
00000000: 96e8 8d3d 5fce 0fbf 950c 61bd 5f30 02bf
00000010: 0be3 66be 30e3 413d 8192 b9bd 1638 dc3d
00000020: 1b93 a73d 8c02 3dbd 23f4 8fbc dc2c 313d
00000030: bbca 993e 3efe dbbd 3e1e 423e 086f 253d
00000040: bf23 813d a97a 433d d4db 473d d558 ca3d
00000050: d08c cc3e 2f17 773d afa4 3e3e 5198 9e3e
00000060: ea46 49bd e093 f53c 6cdc f0bd 8bf2 69bf
00000070: ba20 c1be 52e7 da3d 49c0 ef3c ea4e 7dbe
00000080: eed7 66be 1ed9 15be cb67 18bf eb51 81bd
00000090: 80ab 523d aa14 6c3d c98c 48be 0016 973a
000000a0: 760b 75bf a00d d53d 0e82 be3e 9048 2b3f
000000b0: 0d5d 953d 9e83 ea3d 5de2 52be 0f32 4dbe
000000c0: 1965 91bf 3013 0dbc 25f3 62bf ff9f d8bd
000000d0: 7d12 38be 60d2 703c 4b68 a2bd d7cc cdbd
000000e0: 67d9 fb3e 9103 b23d 2fac 09bd fb53 57bd
000000f0: 11c0 92be 0085 2c3c e171 9c3e 6b62 18be
00000100: 5423 ff3d 0a01 933e ad6b 9e3d 4041 0ebf
00000110: f02e 9a3e 90ac 5e3d 2ce3 e13d 48ce 353d
00000120: 3dd6 963e b64f ed3d 2174 05bc ec68 063d
00000130: e81a 173e 00c9 dd3b dec5 203e 747e a4bc
00000140: d4a2 f83c 8210 42bd d0b5 8bbc 66aa c1bd
00000150: 265a e3bf a8bd fabe 902b a0bd 86e5 793b
00000160: 1be2 68bd d450 adbd 4384 303e f0e0 9c3e
00000170: 6584 283e 7834 cf3d e6ef a33d 825f 0d3f
00000180: ae72 24be 5af0 4ebd 18e4 dfbe bdf3 95bd
00000190: 3406 f13d 9de3 b9bc 870f 453c d85e 7cbd
000001a0: 5205 5ebe 80df 20bd 0346 c8bd 4484 1dbe
000001b0: d516 02be b4e1 19bd 0352 3f3e cccc 74be
000001c0: 8220 d13e a0b3 bfbd 98bf 2e3f 15a0 933c
000001d0: f8fc 933d 44fb 4a3d d7a5 2d3d 1afb d4bd
000001e0: 1fac e63c 8799 2f3c 0b95 a1bd bc8f c53e
000001f0: a487 03bf 905a 7d3d 11e3 2fbe bd29 cebc
00000200: e923 ce3d 473d e4be a88d 433e 1eb7 01bf
00000210: 88b3 10bd b05a 6e3c bdf6 7abd c26b f73d
00000220: e666 9e3d b2e0 fbbd 8bcc c0bd 3c77 b5bd
00000230: bd35 523e 78af dbbd 3431 bb3c 144b 173e
00000240: de86 c3bd 69a7 1ebd f032 6c3d b7d4 493e
00000250: ec7b 8fbd 4aea 6b3e 73af 5bbc 2ae7 c13e
00000260: 711b eb3b d0b5 23bd 1a09 173e 6dec b03d
00000270: 78c6 81bc d086 d03c 2989 9b3d 8abb 6e3e
00000280: 84da 853d d7b6 23be f167 80bf 59b5 163e
00000290: 5433 2bbd 0e3a ebbd 0dd2 553e 4afe 923d
000002a0: 886e 1b3d 6092 58bc 8de8 313e a54b 08be
000002b0: bc79 fcbd 90a9 fd3d cbc4 4ebd b5d5 9fbe
000002c0: 31cb bbbe 2e2f b1bd 15f1 b63d 5902 9bbd
000002d0: c8e6 0ebe 400c 53bb 9f76 03be f9c9 7abd
000002e0: d5e8 e13e b0c5 693d fdf7 d43c 1633 0dbe
000002f0: 1342 c53e 224c 973d f438 433e e92a 17be
00000300: 6204 673d c64f 8abd 572d c7bc 8a77 87bf
00000310: b05c f63c 48d6 d43d 67d6 19be 4023 afbd
00000320: 716f 863d 0e96 ad3d 4618 ef3d 80da 88bc
00000330: aca7 103e b0b9 333c dbb3 503e f67d e43c
00000340: 91bc 903c a578 d9bd 64ab f83d 2f58 76bd
00000350: ba71 e3bf 191a a6be 4bc1 cdbd 9e4a fe3c
00000360: 8bfe ba3c b8f8 333d 0ab2 813e 60d8 7ebd
00000370: 6e85 983d 0420 693d d1b2 f13d da63 343f
00000380: 9a45 09be 0795 193d 5369 62bf be1a a03d
00000390: 0c2d a03d 2018 093d 2829 c33c 2479 62bd
000003a0: 25d5 f0be 4855 463d 50b5 d33d 31f9 153d
000003b0: c5cb eebd 6489 1dbe 7e5a d73d 2ca6 aebe
000003c0: 1e38 c33c 6039 ea3d 0c9a 843e 4e3b d23d
000003d0: a56c 603d 2429 babd b2cc 663d 86ec 12be
000003e0: d5c6 073e af02 dc3c 8a56 ed3c ef25 3abd
000003f0: ea5c ffbe 2883 f2bc ff09 a9be eca6 91bc

user_mlp.2.bias f4 [32]
0.12126506 -0.022792196 -0.16791947 -0.13260493 0.17937788 0.03773677 0.030072259 -0.062058706
-0.102489404 0.008052196 0.07813902 -0.18010871 -0.032174837 0.18076493 -0.040104397 -0.09742804
-0.07344802 0.012058454 -0.2203348 -0.030936882 -0.0079962155 -0.19744033 0.08336747 0.14460741
0.087478735 -0.05142888 -0.044982616 -0.072599046 0.09717503 -0.13638313 0.00558176 0.0392739
00000000: d159 f83d b3b6 babc 15f3 2bbe 96c9 07be
00000010: d6ae 373e df91 1a3d 195a f63c 4531 7ebd
00000020: f7e5 d1bd 5ced 033c 5a07 a03d 6b6e 38be
00000030: c3c9 03bd 711a 393e 8244 24bd 5a88 c7bd
00000040: ea6b 96bd d290 453c 729f 61be 586f fdbc
00000050: 8f02 03bc cc2d 4abe 90bc aa3d f713 143e
00000060: 0d28 b33d 17a7 52bd b13f 38bd cfae 94bd
00000070: b403 c73d 05a8 0bbe 32e7 b63b abdd 203d

item_mlp.0.weight f4 [64, 4]
0.333726 -0.51386917 -0.003662336 -0.20889422 0.19286186 0.13426368 -0.14017291 -0.33544746
-0.422788 -0.22123937 0.33951673 0.080646396 -0.0039123176 -0.28621784 0.15061575 -0.17457958
-0.0261119 0.030753732 -0.44339782 -0.3367247 0.11560792 -0.34828174 0.15859282 -0.39975083
-0.27838737 -0.20860213 -0.35196877 -0.4354182 -0.019576192 -0.3685534 -0.18976814 -0.46820015
0.43975544 0.31502536 -0.05345509 -0.49324268 0.0752173 0.023739897 0.1929474 -0.4490088
0.38147438 -0.31747007 -0.49435174 -0.23102832 -0.18169072 -0.37792122 -0.022717755 -0.52355695
0.3481594 -0.2587559 0.47509086 -0.25798616 -0.10985303 -0.44885397 0.0077261925 -0.4276827
0.29322308 -0.37019438 0.014782249 0.3919825 0.12189411 0.036288932 0.06581051 -0.05333353
-0.21532096 0.6463137 -0.32447314 -0.04573511 -0.34250027 -0.40325838 0.11718786 -0.31989413
-0.43606192 -0.44973528 0.4735167 -0.49377143 0.034779422 -0.1449462 -0.1156785 -0.17266303
-0.3555609 -0.22592497 -0.31992215 0.09372234 -0.005485952 -0.14778793 0.3418619 -0.11302602
-0.034824193 -0.36911786 -0.27384335 -0.34238952 -0.26971015 -0.2633777 0.054866083 0.4082128
-0.50780004 0.398177 0.36981383 -0.429505 0.20773369 0.033934116 0.30408317 -0.20118856
-0.57338715 -0.08698238 -0.733362 0.28945595 -0.1184693 -0.33531612 0.027712584 0.08607119
0.37321508 0.1075238 -0.246149 -0.26788533 0.09435411 -0.019752655 0.21627541 -0.3429084
0.26908675 -0.40871394 -0.28095484 -0.36032465 -0.47376353 -0.034972668 0.31760848 -0.14548898
-0.36743358 -0.20545687 -0.0014082508 0.33926576 0.19765162 -0.2627554 0.0101284385 -0.16180915
0.41483316 -0.5273019 -0.37257254 0.4101873 -0.20287497 -0.47574478 0.2353138 -0.33353567
-0.34612143 -0.30707818 -0.35897642 -0.32512313 0.07357532 -0.35983187 -0.053364158 0.015429437
-0.10786879 -0.06014612 0.16255994 -0.035042077 -0.49299285 0.5642879 0.4268988 -0.44250366
0.32985112 0.27244124 -0.47686467 -0.41844234 0.25007993 0.16124035 -0.055176925 0.19062862
-0.46835667 -0.39641345 -0.1919446 0.021128237 0.36794725 -0.4999369 0.40210283 -0.12964761
0.019997776 -0.25586027 0.09558451 -0.34970778 -0.10904372 -0.4596213 -0.2168994 0.21861523
0.10376616 0.09915629 0.24098733 -0.09183311 0.3977357 0.5519648 0.26834175 -0.43151414
-0.4986785 0.23794164 0.244833 0.13595569 -0.335517 -0.0459646 0.32483697 0.06288302
0.259916 -0.3142473 0.037546694 -0.33928198 -0.5737273 0.4299817 0.14940931 0.14324944
-0.31358725 -0.13201475 -0.21132022 0.16637361 0.018631816 -0.1790582 -0.41003168 0.28327668
-0.27493975 0.5237291 0.36715195 -0.4605541 0.32242113 0.15283725 0.25584364 -0.24702771
-0.27487922 0.55705845 -0.0348229 0.37694678 0.2314454 -0.3907174 0.4765885 0.2725206
0.162471 -1.017874 -0.21506806 -0.45983735 -0.42874718 -0.78736764 0.3459539 -0.11174636
-0.36539006 -0.22415078 -0.21878648 0.4655277 0.005780635 -1.044244 -0.3952424 0.10550987
-0.17598611 -0.34791815 -0.12699276 -0.3913241 0.2940657 -1.0031512 0.2669624 -0.19003735
00000000: 22de aa3e ee8c 03bf cd03 70bb 5ee8 55be
00000010: 947d 453e 6b7c 093e 7d89 0fbe c5bf abbe
00000020: ab77 d8be 938c 62be 23d5 ad3e f029 a53d
00000030: e632 80bb 258b 92be 043b 1a3e fdc4 32be
00000040: a0e8 d5bc 40ef fb3c 0a05 e3be 2e67 acbe
00000050: d8c3 ec3d fc51 b2be 2866 223e 24ac ccbe
00000060: ca88 8ebe cc9b 55be 4035 b4be 22ef debe
00000070: 405e a0bc 08b3 bcbe 9452 42be eeb7 efbe
00000080: a027 e13e 014b a13e b9f3 5abd 4e8a fcbe
00000090: 870b 9a3d 2c7a c23c 0194 453e 7be4 e5be
000000a0: 9c50 c33e 708b a2be ac1b fdbe b092 6cbe
000000b0: 220d 3abe e47e c1be 961a babc d407 06bf
000000c0: f341 b23e a77b 84be 1c3f f33e c316 84be
000000d0: a0fa e0bd 30d0 e5be 002c fd3b 3af9 dabe
000000e0: 5621 963e 1e8a bdbe 3f31 723c eeb1 c83e
000000f0: 9fa3 f93d b4a3 143d a9c7 863d 4274 5abd
00000100: 197d 5cbe d174 253f 5821 a6be bd54 3bbd
00000110: 325c afbe e277 cebe 3000 f03d 2ac9 a3be
00000120: 8243 dfbe b443 e6be c870 f23e 9ccf fcbe
00000130: de74 0e3d c76c 14be d9e8 ecbd 94ce 30be
00000140: 140c b6be e058 67be d6cc a3be 80f1 bf3d
00000150: 80c3 b3bb b855 17be 8608 af3e 307a e7bd
00000160: d0a3 0ebd 04fd bcbe 3235 8cbe ae4d afbe
00000170: 7317 8abe 71d9 86be 42bb 603d 4501 d13e
00000180: 2fff 01bf dbdd cb3e 3d58 bd3e 14e8 dbbe
00000190: 24b8 543e 80fe 0a3d cab0 9b3e 6004 4ebe
000001a0: 80c9 12bf d123 b2bd 9dbd 3bbf 9233 943e
000001b0: 08a0 f2bd 8eae abbe 8005 e33c 1846 b03d
000001c0: 0c16 bf3e 7035 dc3d 7c0e 7cbe 4428 89be
000001d0: ba3c c13d 52d0 a1bc 4d77 5d3e b191 afbe
000001e0: bdc5 893e f442 d1be 50d9 8fbe 797c b8be
000001f0: 2291 f2be 803f 0fbd 949d a23e 10fb 14be
00000200: 4120 bcbe 4963 52be 0e95 b8ba 3eb4 ad3e
00000210: 3065 4a3e e087 86be c0f1 253c 4cb1 25be
00000220: 0365 d43e 42fd 06bf d4c1 bebe 1204 d23e
00000230: 75be 4fbe d294 f3be 1af6 703e 30c5 aabe
00000240: d436 b1be 5a39 9dbe c2cb b7be 8a76 a6be
00000250: a8ae 963d e23b b8be 6094 5abd c0cb 7c3c
00000260: 50ea dcbd c75b 76bd 1d76 263e 4888 0fbd
00000270: 8f69 fcbe 2c75 103f 7b92 da3e d78f e2be
00000280: 3fe2 a83e 6b7d 8b3e 9b27 f4be 133e d6be
00000290: 7a0a 803e 311c 253e 3301 62bd 2634 433e
000002a0: 72cc efbe b4f6 cabe 208d 44be 2015 ad3c
000002b0: 9563 bc3e bbf7 ffbe 6ce0 cd3e 58c2 04be
000002c0: 60d2 a33c 1e00 83be d0c1 c33d e60c b3be
000002d0: 5052 dfbd 7c53 ebbe e01a 5ebe acdc 5f3e
000002e0: 5a83 d43d 7412 cb3d 62c5 763e ff12 bcbd
000002f0: 03a4 cb3e 914d 0d3f 1764 893e 6cef dcbe
00000300: ca52 ffbe f9a6 733e 80b5 7a3e f837 0b3e
00000310: e2c8 abbe 6045 3cbd 0851 a63e d0c8 803d
00000320: b613 853e 06e5 a0be 90ca 193d 5eb6 adbe
00000330: cbdf 12bf 9026 dc3e c1fe 183e fbaf 123e
00000340: 828e a0be e02e 07be 5464 58be d85d 2a3e
00000350: c0a1 983c 085b 37be acef d1be a409 913e
00000360: e7c4 8cbe 1c13 063f 57fb bb3e bfcd ebbe
00000370: 6214 a53e 5e81 1c3e f0fd 823e d5f4 7cbe
00000380: f8bc 8cbe 629b 0e3f 75a2 0ebd 2bff c03e
00000390: 0600 6d3e 1c0c c8be 6803 f43e d287 8b3e
000003a0: cc5e 263e b249 82bf cd3a 5cbe cd6f ebbe
000003b0: c084 dbbe ed90 49bf df20 b13e 47db e4bd
000003c0: 6814 bbbe c887 65be 9009 60be a659 ee3e
000003d0: 7b6b bd3b caa9 85bf 365d cabe 8f15 d83d
000003e0: b435 34be 5422 b2be 640a 02be a25b c8be
000003f0: c88f 963e 4267 80bf 4caf 883e 2799 42be

item_mlp.0.bias f4 [64]
-0.09287588 -0.00660655 0.09370997 0.22394897 -0.08667499 -0.34844756 -0.36189824 -0.33697385
0.18675089 0.30384222 -0.13119322 0.35555926 -0.1553043 -0.054167688 -0.3392671 -0.10113591
-0.0918083 -0.15612781 0.06467295 0.12051019 -0.3959633 -0.23070985 -0.3473134 0.06959365
-0.06289976 -0.2832628 0.20801987 -0.08663517 -0.17530102 0.10777915 0.29748985 -0.014857769
0.076593995 -0.08146441 -0.5071074 0.48617375 -0.39656526 -0.3693844 -0.052218724 0.42595744
0.3619273 -0.3384455 -0.41860223 -0.39422634 -0.44613922 -0.47418314 0.29059523 -0.19088596
0.008907797 -0.4226312 -0.24345309 0.017930938 -0.058044076 -0.2831372 0.19604805 0.2399066
-0.3965232 -0.5719714 0.3968339 0.40188417 -0.10160148 0.1892176 -0.46973538 -0.09701797
00000000: b635 bebd c27b d8bb 03eb bf3d e152 653e
00000010: a882 b1bd b867 b2be ba4a b9be d687 acbe
00000020: a03b 3f3e 3591 9b3e 8457 06be dd0b b63e
00000030: 1708 1fbe f0de 5dbd 6bb4 adbe 5820 cfbd
00000040: fd05 bcbd f8df 1fbe 4073 843d 0cce f63d
00000050: b4bb cabe 343f 6cbe 10d3 b1be 1e87 8e3d
00000060: 97d1 80bd d207 91be 2903 553e c86d b1bd
00000070: 1c82 33be 51bb dc3d 9750 983e 006e 73bc
00000080: 50dd 9c3d d0d6 a6bd cad1 01bf c4eb f83e
00000090: 9a0a cbbe f41f bdbe 4de3 55bd 1817 da3e
000000a0: 894e b93e bb48 adbe 0853 d6be 09d8 c9be
000000b0: 5c6c e4be 22c8 f2be e6c8 943e 9c77 43be
000000c0: 02f2 113c 1e63 d8be c44b 79be e7e3 923c
000000d0: a0bf 6dbd 5cf7 90be d2c0 483e 13aa 753e
000000e0: 1705 cbbe b86c 12bf d02d cb3e c3c3 cd3e
000000f0: 7014 d0bd 42c2 413e 2881 f0be 5cb1 c6bd

item_mlp.2.weight f4 [32, 64]
-0.007953685 -0.09831833 -0.46651852 -0.07860132 0.051191717 -0.03891872 -0.028343514 -0.026856378
0.029170353 -0.21401447 -0.12091926 0.007937318 -0.17316788 -0.084206045 0.39515647 -0.07450211
-0.081192434 0.0416836 -0.056365877 -0.06493472 0.034600526 0.08949648 0.049668655 0.18862887
0.10755877 -0.026479423 -0.050935358 -0.017478928 -0.056058496 -0.022182517 0.6484306 -0.0790821
0.12401146 -0.07801092 0.17274937 -0.18377455 0.034160286 -0.02796185 0.049782388 -0.2535461
0.002414672 0.03549026 0.028673127 0.10623121 0.09513977 0.06576231 0.08385815 -0.4514728
0.29505706 0.11917654 0.09209618 0.22940795 0.09018624 0.047903404 0.15107395 0.04216425
-0.03862892 0.026608573 2.0369895 -0.63303435 -0.1094576 0.22883196 -0.086008504 0.27452096
0.037455518 0.04232394 0.06468605 -0.04978111 -0.06448558 -0.110347494 -0.012702063 -0.122840315
-0.073434405 -0.15226631 -0.11028992 -0.0056365267 -0.38209623 -0.061665192 0.09576083 -0.05400576
0.24276967 0.031133205 0.0955673 0.04701959 0.00934045 0.063559204 -0.012691051 -0.04088097
-0.05298313 0.112736836 -0.14388517 -0.11097807 -0.12079778 -0.203778 -0.05853657 0.08959195
0.09194852 -0.04387109 -0.25510934 0.07881453 0.06437573 0.0938794 -0.12946996 -0.0133294035
-0.1367874 -0.20861076 0.09961726 0.019088782 -0.12035218 0.06712636 -0.16415566 0.07004582
0.23002295 0.00082322955 0.047397763 0.27051714 -0.07204346 0.033000827 0.38046342 0.0057593556
-0.050931614 -0.78563935 -0.9504153 0.28984234 0.04655063 0.6452545 -0.105588734 0.07457092
0.035997894 0.085583955 0.11428158 0.03656811 -0.0240414 0.002768755 -0.08872864 -0.019055814
0.030370304 -0.06482912 -0.10976179 -0.06717499 -0.0912873 -0.12311235 0.39166838 0.022903686
-0.18985188 -0.0848349 -0.1147424 0.018625237 -0.10836603 0.06929977 0.06860572 0.09152285
-0.111552596 -0.04648663 0.5952604 0.07983635 0.024551913 0.12865521 0.25639504 0.08161327
0.05471468 -0.09757757 0.0930859 -0.2752913 0.09593488 -0.06090416 0.1044936 -0.2209141
0.039140865 0.035575934 0.09481679 0.08910233 0.11476822 0.12049866 -0.035790816 0.038725846
0.17307642 0.090669855 -0.07615845 -0.08313184 -0.0941273 0.097193986 0.40469497 0.12370663
-0.53193516 -0.73834705 -0.1865473 0.1792622 0.0354767 0.8816878 0.0080654025 0.5821859
0.10123438 0.080258824 0.09434419 -0.055945218 0.07888958 -0.07060541 0.028768092 0.1071448
-0.037854873 0.047688488 0.017325535 0.06680571 -0.24165164 -0.10925342 0.14945318 -0.0736241
-0.003711827 -0.039455354 0.038509548 -0.058827925 -0.07515521 -0.010585859 -0.011301339 0.07771758
0.10322328 0.07725735 0.33129573 -0.07248539 -0.027135745 0.051806014 0.49200252 -0.09300411
0.13176562 -0.09009074 -0.12048929 -0.09886124 0.086773664 0.02373074 -0.042879358 -0.18717085
-0.13415721 0.08394652 0.0755039 -0.029760472 -0.12238124 0.1230322 -0.08864417 0.008250225
0.2520972 0.05753076 0.04437186 0.28947765 -0.009346232 0.059571326 0.53913504 -0.10342766
-0.39632604 -1.0120388 -0.24466224 0.20271738 -0.10896994 0.9459789 0.09665686 0.736434
00000000: 2c50 02bc 1f5b c9bd 84db eebe bbf9 a0bd
00000010: 68ae 513d 3c69 1fbd a830 e8bc e801 dcbc
00000020: aaf6 ee3c 9c26 5bbe 84a4 f7bd 860b 023c
00000030: ec52 31be 3874 acbd f351 ca3e 9094 98bd
00000040: 3848 a6bd 6cbc 2a3d e8df 66bd 7ffc 84bd
00000050: 48b9 0d3d ee49 b73d 5c71 4b3d ed27 413e
00000060: c647 dc3d 60eb d8bc 98a1 50bd f82f 8fbc
00000070: 989d 65bd 1cb8 b5bc 8cff 253f ccf5 a1bd
00000080: b8f9 fd3d 30c4 9fbd 36e5 303e 652f 3cbe
00000090: a8eb 0b3d 4010 e5bc 9ee8 4b3d cbd0 81be
000000a0: 793f 1e3b 3c5e 113d e8e3 ea3c c08f d93d
000000b0: a4d8 c23d 64ae 863d d2bd ab3d 7127 e7be
000000c0: b811 973e d412 f43d ec9c bc3d ebe9 6a3e
000000d0: 90b3 b83d 5c36 443d 21b3 1a3e 6cb4 2c3d
000000e0: 5c39 1ebd 39fa d93c 095e 0240 8a0e 22bf
000000f0: 4e2b e0bd ed52 6a3e 3a25 b0bd 038e 8c3e
00000100: f56a 193d de5b 2d3d 1f7a 843d 47e7 4bbd
00000110: 0411 84bd defd e1bd 501c 50bc b493 fbbd
00000120: c764 96bd b3eb 1bbe aedf e1bd 9db2 b8bb
00000130: 1ea2 c3be a494 7cbd 411e c43d 2535 5dbd
00000140: 9d98 783e 100b ff3c cab8 c33d 9d97 403d
00000150: b008 193c 542b 823d 20ee 4fbc ce72 27bd
00000160: d704 59bd 92e2 e63d a256 13be 7848 e3bd
00000170: d464 f7bd 2eab 50be 0bc4 6fbd fc7b b73d
00000180: 814f bc3d 2cb2 33bd b19d 82be 8369 a13d
00000190: 6cd7 833d d843 c03d c693 04be 9263 5abc
000001a0: ff11 0cbe 0f9e 55be 2204 cc3d 1460 9c3c
000001b0: 347b f6bd 8c79 893d 6c18 28be 2f74 8f3d
000001c0: 238b 6b3e 00ce 573a 2824 423d 3981 8a3e
000001d0: 868b 93bd e02b 073d 1acc c23e fab8 bc3b
000001e0: ab9d 50bd a91f 49bf 6b4e 73bf 3766 943e
000001f0: e0ab 3e3d 662f 253f e83e d8bd a3b8 983d
00000200: 8772 133d a446 af3d 760c ea3d 71c8 153d
00000210: 78f2 c4bc 0074 353b 5cb7 b5bd f01a 9cbc
00000220: 25cb f83c 21c5 84bd caca e0bd 0b93 89bd
00000230: d6f4 babd 5422 fcbd c288 c83e 83a0 bb3c
00000240: 8868 42be ecbd adbd 10fe eabd f493 983c
00000250: 02ef ddbd 0aed 8d3d 2881 8c3d 5570 bb3d
00000260: b075 e4bd c468 3ebd fc62 183f 3e81 a33d
00000270: 1821 c93c 31be 033e 3646 833e dc24 a73d
00000280: 801c 603d c0d6 c7bd d2a3 be3d fbf2 8cbe
00000290: 8279 c43d a476 79bd be00 d63d 4e37 62be
000002a0: 2c52 203d 12b8 113d 4e2f c23d 487b b63d
000002b0: 9a0b eb3d 00c8 f63d 6499 12bd fe9e 1e3d
000002c0: f23a 313e 1eb1 b93d f6f8 9bbd 0741 aabd
000002d0: d0c5 c0bd a40d c73d 2e34 cf3e e759 fd3d
000002e0: e72c 08bf 5004 3dbf 4106 3fbe 8390 373e
000002f0: 0450 113d 4bb6 613f c024 043c 230a 153f
00000300: f853 cf3d bd5e a43d 8737 c13d d026 65bd
00000310: dc90 a13d 9299 90bd 10ab eb3c bc6e db3d
00000320: b60d 1bbd 0155 433d 48ee 8d3c 6fd1 883d
00000330: 8773 77be 42c0 dfbd 410a 193e 3bc8 96bd
00000340: 2042 73bb f09b 21bd 30bc 1d3d 8df5 70bd
00000350: faea 99bd 5070 2dbc 4029 39bc 652a 9f3d
00000360: ba66 d33d 1a39 9e3d 989f a93e 3873 94bd
00000370: c84b debc 8b32 543d c1e7 fb3e f078 bebd
00000380: 91ed 063e 7e81 b8bd 17c3 f6bd c377 cabd
00000390: 64b6 b13d f866 c23c 44a2 2fbd b7a9 3fbe
000003a0: 8260 09be 27ec ab3d caa1 9a3d 3ccc f3bc
000003b0: 04a3 fabd 4ef8 fb3d 138b b5bd f42b 073c
000003c0: e212 813e 60a5 6b3d 44bf 353d 6a36 943e
000003d0: f020 19bc 1001 743d c104 0a3f e2d1 d3bd
000003e0: 3feb cabe 7d8a 81bf bd88 7abe 2595 4f3e
000003f0: a22b dfbd ac2b 723f 08f4 c53d f086 3c3f

item_mlp.2.bias f4 [32]
-0.016574968 0.002000556 -0.06943884 -0.002848361 0.077380024 0.004395733 0.032122664 -0.116937965
0.08501829 -0.008217763 -0.031731658 -0.011147119 0.019850554 -0.0341251 0.032817118 0.021277959
0.05588692 0.019456178 -0.075946085 0.03471757 -0.018459935 -0.11939273 -0.02813673 0.13845026
-0.032516528 -0.0030429473 -0.040347725 -0.025232997 0.052337095 -0.13738194 0.052738246 0.082214855
00000000: 3ac8 87bc c31b 033b f335 8ebd 91ab 3abb
00000010: 6b79 9e3d 150a 903b 0e93 033d 2c7d efbd
00000020: 121e ae3d cca3 06bc 0ef9 01bd 68a2 36bc
00000030: a19d a23c c3c6 0bbd 3e6b 063d 1d4f ae3c
00000040: afe9 643d 9062 9f3c 9f89 9bbd 0334 0e3d
00000050: 4a39 97bc 2d84 f4bd 007f e6bc e8c5 0d3e
00000060: 0d30 05bd 2f6c 47bb a843 25bd 6eb5 cebc
00000070: 6c5f 563d daad 0cbe 0f04 583d 4360 a83d
