backend/model_weights.pth (torch, 23009 bytes, 8 tensors)

user_mlp.0.weight f4 [64, 4]
00000000: 5dee e73e 8fc2 473e f374 bcbd 65af a13e
00000010: 4349 9fbb 3c1b ccbe 60c1 afbc 6914 04bf
00000020: a316 6ebe 3808 9a3e 9a31 133e 061c 51be
00000030: bc43 663e 2c9f 20be 90fa 6b3e 480e 803d
00000040: 86c8 92ba 356a 05bd 746f c13e 7aa8 b4be
00000050: b656 ee3e cea6 83be 96a3 0fbf 109f 6f3e
00000060: d196 183d 1bf3 7a3e ae4c 9b3e 79b5 01be
00000070: 8d52 813c 01b0 e9bd da3c b2be 2051 aa3e
00000080: b799 603e 592e ecbe 0cce 723e 01fc ecbe
00000090: f685 80be c400 b13e 8036 f4be 9013 e9bd
000000a0: 19b4 1dbe 8ce1 efbe 0114 9c3e e3e4 3ebe
000000b0: 7a07 783c 3052 b4bd bb30 6e3e d5b0 e33d
000000c0: b0ba f63c 8942 213f ea0c c03e 7635 9abe
000000d0: 184d 683e fa3d b7be d6f7 c7be 2e6a e3be
000000e0: 0cd4 1bbe a4eb d9be fa09 a83e f233 85be
000000f0: 12f2 67bd 10d0 55bd 1237 edbd b7d1 fcbe
00000100: 67da d7be 91dd f2be f0fd 103f 65f2 c93e
00000110: 081f dcbd 2fd5 2c3f 8dd4 79be 967b 67be
00000120: c379 f2bd 51a1 c93e 4bbf 213e dc23 b6bc
00000130: e02b b1bd d04a 6a3d 0e0b b9be c3af ae3e
00000140: 3f90 00bf 29a1 b3bd bb91 80bd f0b7 64be
00000150: e778 993e e932 13bf 2ef6 ecbe 1002 17be
00000160: 7eb9 c7bd 9fa2 83be 9303 53bf 318a 31bd
00000170: 2604 b93e 48ac 113e 88d7 bfbe 66a9 f3be
00000180: 7d53 ecbe 52c3 8abd f88c 70be 34f6 1b3e
00000190: a776 7fbe 08d1 8abb ac1e 93bd 76d8 1ebe
000001a0: 929e f73e 1d37 10bf 1ecd d23e 011f 413e
000001b0: 0c45 463e 3d23 e7be 9cb8 073f a41a 003b
000001c0: 36e5 e33d b4ba c63d 9e78 653d 0e6e 3cbf
000001d0: 4e94 143e 1cf5 07bf 6a77 ca3e 9f1a df3e
000001e0: c17b a53e 6c08 483e 29ba b1be 1fe8 5ebb
000001f0: 04aa 3cbf 4c6a 49bd 06a0 17be 4418 203f
00000200: 61b5 9d3e 2e3a 88bf c662 f9bd d692 303a
00000210: 411c 22bb daa3 72bd 42bf d4bd 1138 02bf
00000220: 5764 8d3e c53c f6bd a9b7 47bf 4deb 4cbf
00000230: ef05 68be e87f 1f3e 6f91 b1be d38e 6c3e
00000240: d250 f4be 5669 ccbd 5a7d 653e 00e4 3fbb
00000250: c609 9fbc cd6d a03e 8be2 9f3e 8901 a83e
00000260: 260f fa3e 60b3 3fbe e48c f2be 20b7 ce3c
00000270: 0163 97be 8719 9dbd 8b6d 0f3f b9ac 7bbe
00000280: fa45 0bbf 05dc 30be b8d8 8fbe dbe3 08bf
00000290: 89c0 b53e f47e f53e eb2a 9abd b43f 3ebe
000002a0: d7f1 eebe 6bf1 003f 2538 14bd 5b98 ea3d
000002b0: 4417 a0be 9ce0 97bd 46da d9be 368f af3e
000002c0: bc72 50be 22ff d1be e335 15bd 4b07 0e3f
000002d0: 0013 833c 68cf 303e cec7 f2be 88bd 893d
000002e0: 879b 0c3e 5069 97be e070 8d3d c3bc cfbe
000002f0: 5ce9 a9be e03b 9dbe 707b 7d3d 84a0 bdbe
00000300: 86a7 a33e 31d1 e93e 80a2 a3be e156 c0be
00000310: bc20 c9be bee2 4b3e d0d8 863d aaaa 013f
00000320: cb81 11bf a4ba 2c3e 342d 3dbe c987 5fbe
00000330: 7471 d53e 9c59 313e 39a1 aebe fa78 143e
00000340: 9ce6 9dbf e63b 30be c58f d33e 6c61 6fbe
00000350: c25e fbbe dc0d 15be 025e 963e d23a f9be
00000360: a873 7bbe c006 4a3e bc52 c1be 1e6c 93be
00000370: ec1f fdbe 6daf 1fbe 7a7e bebd 026a f5be
00000380: 3850 2bbe e49b 633e 400d f7bc d070 85be
00000390: 4e67 dbbe 502f a4be 0289 cfbe b87a b53d
000003a0: 2039 e83d e040 f43d b060 b13e e45b 59be
000003b0: 9043 6c3d ba7f 9dbe ca68 8abe 20dc 093d
000003c0: d4f3 3cbe c72d 5dbf 0e52 11bf dc6e ad3e
000003d0: 439c 01be 2f4b 76bd de31 b73e 5450 eabe
000003e0: d809 c33e fcb7 5abc 8bec 89be 5eb9 0a3f
000003f0: be60 f9be 44ad 6b3e 7d15 d8be 765d c53e
0.45299044 0.19507812 -0.09201994 0.31579128 -0.0048610284 -0.39864528 -0.021454513 -0.51593643
-0.23250823 0.30084395 0.1437439 -0.20420846 0.22486776 -0.15685719 0.23044801 0.06252724
-0.0011198677 -0.03257199 0.37780344 -0.35284787 0.4655053 -0.257132 -0.5610899 0.23400521
0.037253205 0.245068 0.3033194 -0.12666883 0.015786434 -0.11410523 -0.3481205 0.33265018
0.21933638 -0.4612911 0.23711413 -0.46286014 -0.25102204 0.34570897 -0.4769783 -0.113806844
-0.15400733 -0.46851766 0.30484012 -0.18642001 0.015138501 -0.088047385 0.23260777 0.111177124
0.030118316 0.6299215 0.37509853 -0.30118912 0.22685659 -0.35789472 -0.3905627 -0.44416946
-0.15217608 -0.42562592 0.32820112 -0.26016194 -0.05662734 -0.052200377 -0.115827695 -0.4937875
-0.42158815 -0.47434667 0.5663748 0.39442745 -0.10748106 0.6751279 -0.24397488 -0.22605738
-0.118396305 0.39380887 0.15795629 -0.022233896 -0.086509466 0.057200253 -0.36141247 0.3411847
-0.502201 -0.08770973 -0.06277796 -0.22335792 0.29975054 -0.5749956 -0.4628157 -0.1474688
-0.09752177 -0.25710008 -0.8242733 -0.04334468 0.36135978 0.14225876 -0.37469125 -0.47590178
-0.46157447 -0.06775536 -0.23491275 0.15230638 -0.24947606 -0.0042363442 -0.071835846 -0.15512261
0.48363167 -0.56334096 0.41172117 0.18859483 0.19362277 -0.45144072 0.53016067 0.001954713
0.11127703 0.097035795 0.056023233 -0.7360543 0.14509699 -0.5310838 0.3954423 0.43574998
0.3232098 0.19534463 -0.3471234 -0.0034012867 -0.73696923 -0.04917364 -0.14807138 0.62537026
0.30802444 -1.0642755 -0.12177043 0.00067357474 -0.002473608 -0.059238292 -0.10388042 -0.508668
0.27615616 -0.120233096 -0.7801462 -0.8004654 -0.22658513 0.15576136 -0.3468127 0.23101358
-0.4771791 -0.09981029 0.22411099 -0.0029280186 -0.01941384 0.3133377 0.31227526 0.3281367
0.48839682 -0.1872077 -0.47373116 0.025233805 -0.2956772 -0.076708846 0.56026524 -0.24577607
-0.5440365 -0.17271431 -0.2809503 -0.5347268 0.35498455 0.4794842 -0.07527717 -0.18578988
-0.46668884 0.50368375 -0.036186356 0.11454841 -0.3126775 -0.07415888 -0.42549342 0.3428895
-0.20356268 -0.41014963 -0.036428344 0.5547988 0.01600027 0.17266619 -0.47418064 0.06725603
0.13731204 -0.29572535 0.06906295 -0.405737 -0.33185852 -0.30709743 0.061885297 -0.37036526
0.31963748 0.45667413 -0.31959915 -0.37566283 -0.39282787 0.19910714 0.065843225 0.5065104
-0.56838673 0.16868073 -0.18474275 -0.21829142 0.4168812 0.1731934 -0.34107378 0.14499274
-1.2336001 -0.1721035 0.41320625 -0.23377007 -0.49095732 -0.14556068 0.29368597 -0.4867769
-0.24555838 0.19729137 -0.37758434 -0.28793424 -0.49438417 -0.15594263 -0.09301467 -0.4793244
-0.1672982 0.22227436 -0.030157685 -0.26062632 -0.42852253 -0.32067347 -0.40534216 0.08861297
0.11339021 0.119264364 0.3464408 -0.2122646 0.05768162 -0.3076151 -0.27033073 0.033657193
-0.18452388 -0.86397976 -0.5676583 0.33873641 -0.12657265 -0.060130294 0.35780233 -0.4576441
0.38093448 -0.013349529 -0.2693828 0.541891 -0.4870662 0.23015314 -0.42203894 0.38547868

user_mlp.0.bias f4 [64]
00000000: eaf5 00bf ace9 a93e b7a1 5d3d f47e d7be
00000010: be95 e23d 5218 70bd a385 e3bd c59c d2bd
00000020: 011c 9d3e 0e41 d0be 81ee 9d3e 8ef3 babd
00000030: aff3 fbbe 20ce d6bc 0836 b3be 858e 9d3e
00000040: c76b 4f3d 7304 bdbe 19f4 3fbe ad83 2abd
00000050: 36a1 e43e f132 133e 9c73 b23e 9c32 98be
00000060: 4cba 883e f302 0d3e 4b21 aabe 7276 53be
00000070: a53f 483e a40d a6be 17c5 c33e 28a1 d1bd
00000080: 20ac 3f3d 0efa cc3c 0102 a83e f603 86bc
00000090: ab0d e53d ff8d cbbe a8fd c9be 43d2 a23d
000000a0: 508c f03e 1980 5cbe 6dc5 50be b712 523e
000000b0: 0d39 60be f8ad 54be 2d8b 903e a05c 0cbd
000000c0: a092 d2be c7a5 ecbe 81cf 913e 0722 4dbe
000000d0: b3d0 033c d8dd 6bbe 00ad 66be aa0e 093f
000000e0: b8a7 9dbe b059 efbd 86dd d5be 94aa c0be
000000f0: 9411 ca3d 60e4 803e 51ef a9be ae0e 843d
-0.50375235 0.3318609 0.0541093 -0.42089045 0.11063717 -0.058616944 -0.111094736 -0.10283808
0.30685428 -0.40674633 0.30846027 -0.091284856 -0.49209353 -0.026221335 -0.3500216 0.30772796
0.050639894 -0.36917457 -0.1874546 -0.041629482 0.44654244 0.14374901 0.34853828 -0.29726112
0.26704633 0.13770656 -0.33228526 -0.20650652 0.19555528 -0.32432282 0.38236305 -0.10235816
0.04679501 0.02502158 0.3281403 -0.01635931 0.111842476 -0.39756772 -0.39451337 0.079502605
0.4698205 -0.2153324 -0.20387812 0.20514952 -0.21896763 -0.20769489 0.28231183 -0.03426802
-0.4112749 -0.46220228 0.28478625 -0.20032512 0.008045363 -0.23033845 -0.22526932 0.53538
-0.30792022 -0.116870284 -0.4177057 -0.3763014 0.09866634 0.25174236 -0.33190396 0.064481124

user_mlp.2.weight f4 [32, 64]
00000000: 6cdb 413e a7d7 33be fffc 623c a42c d3bd
00000010: 87f2 c6bd 3fca 8bbc b39b ef3d 659d 73bc
00000020: 891a 473e dc43 803d 4694 193e 9a49 3c3d
00000030: eaff ac3d 5687 c4bd f09d 43bd 3e5a 34be
00000040: 7ce7 99be 905b e3bf d234 863e 7cde baba
00000050: 224c 2b3e fa43 d43e f525 aa3e 4064 a9bc
00000060: c27d e7bd 1b82 223d 0552 853d 32aa 023e
00000070: ca45 1bbc d30b a9bc fdd3 ccbd f96d 18bd
00000080: 66a3 c3be d242 01be 039f 77bf 36fb 7bbd
00000090: 5a4f d73c f4fa 8d3e 5809 bebc bb7a b03c
000000a0: ea38 f53e 9d6d 193e 581c 6d3e a369 09be
000000b0: 4bd2 c13e 7e79 dd3d dfaf d03d 6055 ef3d
000000c0: 82ae 133e ffc3 da3e ebbf ed3d 825d 2ebe
000000d0: eb75 bebe b03e 5b3c 9c2e a73d 5d8f d2be
000000e0: 188f f63d 6440 263d 4ccc 643d 9a05 a53d
000000f0: e31d 873f 2b6e cf3d 09b2 9fbd 8a9b 8bbe
00000100: 0c7f 03bf 626e 3fbe de0d 13bd fc53 8b3d
00000110: a3da 69bd a9c0 373e 39a2 053d 70ef 0fbb
00000120: 2dc3 cbbc 044c ddbd 89d1 05be 3cbd 273c
00000130: ce9f c03d c4a0 e6bd 1891 dcbd d355 b73d
00000140: 407a 2e3e 7cf3 4b3e 3871 113e 7e04 82bc
00000150: ed7e 373d 5e05 b33e c505 843e 40d2 65bd
00000160: bea6 1f3d 9830 56bd d041 2f3e f2c2 bf3e
00000170: cead 2abe 3de7 3f3e ea4f 933d 49ed 27be
00000180: 88cf a3be b3ad 18bd 2e65 2f3e c86f f8bb
00000190: 2098 fd3d 3025 8fbc b050 73bc 706d d4bd
000001a0: 94cd 77bf 06a5 09be 75c2 90be 304f 9cbd
000001b0: f70b fbbe e835 f1bc d7e8 e7bd 00ae 8b39
000001c0: ab08 963e c1c4 7bbd 6ae6 133d ce3c 883a
000001d0: 4b85 d8be b6d5 883d 327f 9e3d 83d0 bd3e
000001e0: d002 62bc 18ab c2bd ec02 4cbd c4cf f4bd
000001f0: d789 833c 161a 9c3d 8734 27bc 1b72 cabd
00000200: 49b5 0dbe cdf5 073f 0033 9fbd a022 743c
00000210: 9cdd 2abd b763 6a3d 8387 8e3d a7ed ce3d
00000220: 6a82 a83d ca20 f9bd d1a7 5bbc c3b9 c93c
00000230: 4bad b53e a0fb d53b 103b b5bd c879 4e3c
00000240: 1551 33bb dc6c 963f 713a cdbd bd75 f43d
00000250: 8fe5 6fbe 9c7b c3bd 69bf a0be 4850 053d
00000260: ae01 3f3d 4fb0 a73d bd0f e93d c1d9 0f3d
00000270: ffa7 21bf 8cd2 d23d b350 533e f306 6ebc
00000280: 7a7d 7d3d 8ced 173d 8c5c 1d3f 39ed 2b3d
00000290: 45c0 8ebc 5818 8cbe 681d 9c3c 8ad3 a13c
000002a0: 6ed4 78bf cf5c 21be ffbc 1abf 7b74 3e3e
000002b0: 7b47 a9be d4e1 78bd d5c6 703b da6a e13d
000002c0: 751c 08be 226a 083e 7eda 12be b959 723e
000002d0: 0acf b9be 4abf be3d f4ae b43d 9079 fd3e
000002e0: 9a0c b33d d08c b9bc d840 8bbc 9a3e d13d
000002f0: 832f 1bbf 0f78 b0bd 42ae 513e d0bc 59bc
00000300: 6835 d33d d360 3fbe 7e24 7a3d 70aa 21bd
00000310: c627 b1bd 1520 793d bccb 573e 5fc4 c53d
00000320: 2c0b 58ba 5c42 cfbd 2577 91bd 3adf 17bd
00000330: 584b 51bf c044 64bd a4f2 023d 1425 223d
00000340: f12c 103e 2127 8ebd 01e2 21be 4d05 243e
00000350: 1ea3 af3e b7f9 053f 2370 943e 4c49 4b3d
00000360: 891e 293e 12c4 9cbc dc6d 99be d40a 913d
00000370: e82e 1d3f 1373 d3bd ff63 a1bd 69f1 a6be
00000380: 7b9a bd3e 0249 8aba 33a4 843d 9b55 7dbc
00000390: 8f22 7d3b 6d4b 873e 4269 fa3d d06d a53d
000003a0: cf15 373f f005 a93e ffc6 3c3e 4fba 043e
000003b0: e528 7d3e 92dc bb3d 2eaa cf3d 0020 d7bd
000003c0: 7422 de3d c0d8 91be 51af 46be 953a b63d
000003d0: 61f4 2a3f b6c0 95bd 24fb 183d 0c74 adbe
000003e0: 98aa 68bd e0a8 c63b e06d dabb e0db 0dbc
000003f0: 0d44 a23d 90e6 b2bb 5ce2 933c b018 0ebe
0.18931359 -0.17562734 0.013854264 -0.10311249 -0.09714227 -0.017064212 0.11699619 -0.014869069
0.19443716 0.06262943 0.14997968 0.04596863 0.08447249 -0.09596126 -0.047758043 -0.1761255
-0.3005942 -1.7762318 0.26212174 -0.0014256979 0.16728261 0.41458112 0.33232084 -0.020677686
-0.11303283 0.03967486 0.065097846 0.12760237 -0.009477088 -0.020635521 -0.10001371 -0.037214253
-0.382106 -0.12623146 -0.9672701 -0.06151887 0.026282955 0.27730525 -0.023197815 0.021542897
0.47894984 0.1498322 0.23155344 -0.13419203 0.37855753 0.108141884 0.10189795 0.11686206
0.14422038 0.42727658 0.11608871 -0.17027858 -0.3719934 0.013381645 0.08163187 -0.41125003
0.12039012 0.04058875 0.055858895 0.08057709 1.0555996 0.10128435 -0.077976294 -0.27267104
-0.51365733 -0.18694451 -0.035901897 0.06803128 -0.057093274 0.17944588 0.03262541 -0.0021962784
-0.02487334 -0.108055145 -0.13068213 0.010237988 0.0940548 -0.11261132 -0.10769862 0.089519165
0.17038822 0.199171 0.14203346 -0.015871283 0.04479878 0.34965032 0.25785652 -0.056108713
0.038977377 -0.052292436 0.17114949 0.3745342 -0.16667864 0.18740554 0.07192977 -0.16399111
-0.3199427 -0.037275027 0.1712844 -0.0075816847 0.12382531 -0.017473787 -0.01485078 -0.10372436
-0.9679806 -0.13441858 -0.2827336 -0.07632291 -0.49032566 -0.02944465 -0.113237076 0.00026641786
0.29303488 -0.061466936 0.03610841 0.0010394098 -0.42289194 0.06681387 0.07739104 0.37073144
-0.013794616 -0.0950529 -0.049807474 -0.11953691 0.016056938 0.07622163 -0.010205395 -0.09885045
-0.13838686 0.5310944 -0.07773399 0.014900833 -0.04171525 0.057224 0.069594406 0.10103922
0.082279995 -0.12164457 -0.01340671 0.02462471 0.35483775 0.00653024 -0.08849156 0.012602277
-0.002736156 1.1751971 -0.100209124 0.11936519 -0.23427413 -0.09545061 -0.31396034 0.032547265
0.04663246 0.08187925 0.11379955 0.035119776 -0.63146967 0.10294065 0.20636253 -0.014528024
0.061887242 0.037091777 0.6146934 0.04197428 -0.017425666 -0.27362323 0.01905699 0.01975419
-0.9719914 -0.1575806 -0.60444635 0.18599121 -0.33062348 -0.06076224 0.0036739607 0.110067084
-0.13292105 0.13321736 -0.1434116 0.23667039 -0.3629077 0.09313829 0.08822432 0.49506807
0.08742638 -0.022650152 -0.016998693 0.102170184 -0.6061937 -0.08616649 0.2047663 -0.013289645
0.10312921 -0.1868928 0.061069958 -0.039469182 -0.08650164 0.06082161 0.21073812 0.096565954
-0.0008241411 -0.10120079 -0.07102803 -0.03707812 -0.8175559 -0.055729628 0.03196968 0.03958614
0.14079644 -0.06941057 -0.1580887 0.16017647 0.34304136 0.5233416 0.28991804 0.04963045
0.16515554 -0.019136462 -0.2996663 0.070821434 0.613997 -0.10324683 -0.07880401 -0.32606056
0.37031922 -0.0010550322 0.06476631 -0.015462304 0.0038625335 0.26424733 0.122271076 0.08077586
0.7151765 0.33012342 0.18435286 0.12961696 0.24722631 0.0917293 0.10139881 -0.105041504
0.10846415 -0.2848568 -0.19402815 0.088978924 0.6677914 -0.07312147 0.03734888 -0.338776
-0.056803316 0.006062612 -0.00666593 -0.008658379 0.07923136 -0.005459614 0.018052272 -0.13876605

user_mlp.2.bias f4 [32]
00000000: f1ea f13b 56b9 c7bd 26e6 da3d 096b b7bc
00000010: 96e1 1a3c 6341 4e3e 8302 873d 5a5f 1d3e
00000020: 1f25 31be bf11 a83c 7afe ba3d d030 a0bc
00000030: a8f1 c7bd 8220 253d d11b 483e af54 2abd
00000040: 8882 593c ea30 ee3d 1e5f dbbc 57e9 de3d
00000050: 052e 523e 5948 a83d da30 22b8 d109 da3d
00000060: cde2 ec3c 3850 b73d 1ebf 8d3d 403e cb3d
00000070: 4562 683c 82f2 88bd 17b7 fcbd cd9a a23c
0.0073827435 -0.09752147 0.106884286 -0.022389906 0.009453198 0.2014213 0.06592276 0.15368405
-0.17299317 0.020516274 0.09130569 -0.019554526 -0.09762889 0.040314205 0.19541861 -0.041584667
0.01327575 0.11630423 -0.026778754 0.1088435 0.20525368 0.08216924 -3.8669306e-05 0.106464036
0.02891674 0.089508474 0.06921218 0.099239826 0.0141835855 -0.0668688 -0.12339609 0.019849205

item_mlp.0.weight f4 [64, 4]
00000000: 0304 cf3d 8260 863a 282b 623e 193c 833e
00000010: 5538 cbbd d0fc 01bf a41d 4f3d 3501 f0bc
00000020: 2aea 8c3e ac57 b7be 261b bb3e 8076 c5bd
00000030: ae30 b93e fc4e 13be a882 debe 54c8 bdbe
00000040: 502d dbbd 08c0 89be d00b 6bbe 6831 cd3e
00000050: 6859 42be 80d6 ca3d e441 a8be ec68 8abe
00000060: 0c50 8c3e 214c dabe 4030 fabe 03a1 9e3e
00000070: a54b 67bd 24f5 17bf b3f2 903d ed5a 56be
00000080: 3edf 1cbf b036 0a3e 1c21 9a3e db8d b63e
00000090: 7370 8c3e 0572 62bf a543 263e 271f 9c3e
000000a0: ec53 0dbe 36f1 d0be 0451 833e 10cd c1bd
000000b0: 8b78 d4bd 83e0 123f da93 2abe 8147 aa3e
000000c0: e26a d1be 2adc 83bd 10da 06bf 3050 c13e
000000d0: a454 1f3e 8c87 033e 3098 97be 20fd 79bd
000000e0: 50f4 0f3d aec0 b2be 001a 8ebd 007a 0c3e
000000f0: ab3e 2f3e 1966 423e fa27 883e a0c8 bbbe
00000100: 6726 2b3e c661 173e 2a19 eb3e d80d bcbe
00000110: 4a9e e73e 7f46 f8be c6e8 70be 85ad af3e
00000120: d08e 7ebe 8ee9 94be f4f1 d33e 9048 17bd
00000130: a44b b2be 4c62 b33c b29a a9bd 21df cbbd
00000140: 7ec6 9cbe 680f d83e 06f7 993e 3db8 c23e
00000150: b7d4 13be ba90 1ebe 38e1 073f 44e7 92be
00000160: 2b78 e5bb 7cc7 6ebf 4c25 afbe d098 d63d
00000170: 8cc4 11bf 5f3a af3e 9524 11bf db71 143e
00000180: 8953 ddbe b35c 343d 970b 713e a915 3abe
00000190: 8444 c5be 0f1a e2be 7c66 b83d 3fbe efbe
000001a0: 8cac 28bf adae 25be 01c1 0e3d ebd8 b23e
000001b0: 459f 0cbf 5ea8 dc3d b845 9a3e b04d 66be
000001c0: 804c bdbc 48f5 2cbe f2fc 9ebe 5078 783d
000001d0: cedc 1cbf 76d0 9cbe 69be b13e f16b 283e
000001e0: 7641 c23e 0925 a03e 01d0 c4bc 09e7 b7be
000001f0: 849a fc3e d834 37be baa9 dfbe 2c64 60be
00000200: 1034 11be b035 ddbd da23 9ebe 40e9 4c3e
00000210: 40d5 a23d 0c1d 0ebe 404c dbbd 54b4 2dbe
00000220: 81cd a03e 48be 17bf 9860 c1be 3f57 fb3e
00000230: 5461 cabe f058 b13d c865 b53e 0047 e43c
00000240: ae06 efbe d568 e33e 4d7a b4be 8c57 42be
00000250: a58c 31bf 83f9 0e3e 65a9 d93e a5c8 693e
00000260: 4500 e43c 4c87 293e 9b4c d13d af07 cbbe
00000270: e99b 83bd c302 103f e74d dcbe 4918 373e
00000280: fa50 9ebd ad67 863e 9a80 f2be 4e84 af3d
00000290: 70c8 ccbc dd22 d43d 9cbe 213f 92b2 13be
000002a0: 0a29 983d 24e6 26be 9ce4 cabe 3821 66be
000002b0: 7533 de3e 44fa 2d3f c4fa 94be 8300 06bf
000002c0: c689 ed3e 8040 91bd aaaf 9cbe 7855 03be
000002d0: 553e bdbe 31ad 813e c693 fabc 4719 7c3e
000002e0: 9087 c0be b2a6 4c3e 417e e8be fd64 0c3e
000002f0: 56ed c3be f48b 4abe 8036 223e d4a6 98be
00000300: c7a7 37be 4c3a 13be 9095 11bf 9d31 903e
00000310: adc3 ddbe 5036 e63e 4483 d83e e7a6 6abe
00000320: 76b2 d2be f289 aabe 8467 df3e ae01 c6be
00000330: 524f d7be baec cf3e 08c9 cabe c809 83bd
00000340: e610 dfbe 7c5f 09be 50e3 3e3e 282f b4be
00000350: 8042 fabb b804 993d 40b0 2fbe 80aa 74bd
00000360: a582 cd3c 72ad 6bbf 327e 2f3e 048d fc3e
00000370: 0aeb e33d f8f0 04be b731 0fbf d4e1 773e
00000380: 33aa a0be b5b1 37bf 439a fabd c0cc 433e
00000390: c295 e1be 2c16 57bf 6a9b c33e 3476 2cbe
000003a0: e09a 8e3c eec6 eb3e 8cef 90be 9464 51be
000003b0: ce80 473e 605e 683e e1d7 cebc 195d 2dbf
000003c0: 583c 0a3e 8a5c 8e3e dce0 28be 002f 813c
000003d0: c10a d7be 77a7 a03e 7947 84bd f096 4c3d
000003e0: ad81 7c3e fcf2 8fbd 5e5f 90bd 72b5 8dbe
000003f0: 9722 8e3e 3a48 e0bd fd92 843e 4856 42bd
0.10108187 0.001025215 0.22086775 0.25631788 -0.09922854 -0.50776386 0.050565377 -0.02929745
0.27522403 -0.35809076 0.3654415 -0.09641743 0.36169952 -0.14385599 -0.43459058 -0.370669
-0.10702002 -0.2690432 -0.22953725 0.40076756 -0.18979418 0.09904194 -0.3286277 -0.27033174
0.2740482 -0.42636207 -0.48864937 0.30982217 -0.056468625 -0.5935843 0.07077541 -0.20933123
-0.6127814 0.13497424 0.30103385 0.35655102 0.27429542 -0.8845523 0.16236742 0.30492517
-0.13801545 -0.4080903 0.25647748 -0.09462941 -0.10374554 0.5737383 -0.16657963 0.33257678
-0.40901858 -0.06438477 -0.52676487 0.3775649 0.15559632 0.12844676 -0.29608297 -0.061032414
0.035145104 -0.34912628 -0.06938553 0.13718414 0.1711375 0.1898426 0.26593 -0.36676502
0.16713868 0.14783391 0.45917636 -0.36729312 0.45237952 -0.48491284 -0.23526296 0.34312072
-0.24859166 -0.29084438 0.41395533 -0.036934435 -0.34823334 0.021897458 -0.08281459 -0.09954668
-0.30620188 0.42199254 0.30071276 0.38031188 -0.14436613 -0.15484896 0.5307803 -0.28692067
-0.0070028505 -0.9327314 -0.34208143 0.104783654 -0.5694053 0.3422422 -0.56696445 0.14496557
-0.43227795 0.044033717 0.23539577 -0.18172325 -0.38528836 -0.44160506 0.09003922 -0.46824834
-0.65888286 -0.16179915 0.03485203 0.3493112 -0.54930526 0.10774301 0.30131316 -0.22490573
-0.023107767 -0.16890442 -0.31052357 0.060661614 -0.6127442 -0.30627793 0.34715584 0.16447426
0.37940568 0.31278256 -0.024024965 -0.35918453 0.49336636 -0.17891252 -0.4368418 -0.21913213
-0.14180017 -0.10801256 -0.30886728 0.20010853 0.079508305 -0.13878268 -0.10707903 -0.16963321
0.31406787 -0.5927472 -0.37769008 0.4909 -0.3952738 0.086595416 0.35429215 0.027865887
-0.46684784 0.44415918 -0.35249558 -0.18978709 -0.6935523 0.13962369 0.4251205 0.22830446
0.02783216 0.16555518 0.102196895 -0.396543 -0.06426222 0.56254214 -0.43028185 0.17880358
-0.07730289 0.26250973 -0.4736374 0.08570157 -0.02499792 0.10358212 0.6318147 -0.14423588
0.074297026 -0.16298729 -0.3962754 -0.2247361 0.43398634 0.6796 -0.2909757 -0.5234453
0.46394175 -0.070923805 -0.3060277 -0.12825572 -0.36961618 0.25327447 -0.030588042 0.24619018
-0.37603426 0.19985464 -0.45408824 0.13710399 -0.3826701 -0.1977995 0.15841103 -0.2981478
-0.17935096 -0.14377707 -0.5686884 0.28162852 -0.4331335 0.44963312 0.42287648 -0.2291523
-0.4115178 -0.3330837 0.43633664 -0.38673156 -0.42052704 0.40610296 -0.396065 -0.0639835
-0.4356758 -0.1341533 0.186414 -0.35192227 -0.007637322 0.07471603 -0.17157078 -0.059732914
0.02508671 -0.9206153 0.17137983 0.49326336 0.111288145 -0.12982547 -0.55935234 0.2420724
-0.31379852 -0.71755534 -0.12236454 0.19121075 -0.4405957 -0.84018207 0.3820451 -0.16841966
0.017407835 0.4605021 -0.2830776 -0.20448524 0.19482729 0.22692251 -0.025249423 -0.6772018
0.13499582 0.27804977 -0.16492027 0.015769482 -0.42000392 0.31377766 -0.06458945 0.049948633
0.24658842 -0.070287675 -0.0704944 -0.27677494 0.27760765 -0.10951276 0.25893393 -0.047445565

item_mlp.0.bias f4 [64]
00000000: caea 873e 8c01 2a3d 6614 aabe d04e a13d
00000010: e4f9 5dbe 92d9 90be c511 90bd 7e55 643e
00000020: b0bb 23bc df48 b8be f80b b3be e24c e5be
00000030: fe48 803e 3037 01be d0d5 55be cd0a 9abd
00000040: fd35 0e3b 898f 653e 68ed cdbe ddb0 6c3e
00000050: d37f 9cbe 2883 623c af84 323e 279b 7b3d
00000060: d2f1 723e 2ea4 b73e 2dfd 633e 5265 983e
00000070: 2672 9cbe 2abc 2f3e 1ae8 0cbe 1061 9abd
00000080: 50d4 27bd 50eb dcbe 0fd6 63be a8c9 17be
00000090: 2592 1b3f ead9 ec3d 7be4 8e3d 8e7e 7fbe
000000a0: 8ca1 473e 829b 34be bfaa ab3e 7af1 ed3c
000000b0: 0cf0 18be a099 53be ff14 c53e 5053 363d
000000c0: a6ac 403e a471 66be d4d4 1fbe 4497 41be
000000d0: 60c0 c33d d81c d9bd 4d57 b6be 81b3 89bc
000000e0: 094e 563e fd38 e53e 3a4a a2be 948c aa3e
000000f0: faa9 98be 53a2 f93d 6983 6d3d f2fb fc3c
0.26546317 0.04150538 -0.33218688 0.078763604 -0.21677357 -0.28290993 -0.07034639 0.22298238
-0.009993479 -0.35993096 -0.3497007 -0.4478522 0.2505569 -0.12618709 -0.20882344 -0.07521591
0.002169966 0.22418036 -0.4022019 0.23114343 -0.30566272 0.013825215 0.17433427 0.06142726
0.2372506 0.35867447 0.22264548 0.297648 -0.30555838 0.17161623 -0.13760415 -0.075380445
-0.04097396 -0.4314828 -0.22249626 -0.1482302 0.60769874 0.11565001 0.06977173 -0.2495062
0.19495219 -0.17637447 0.33528706 0.029045809 -0.1493532 -0.20664072 0.3849258 0.044513047
0.1881586 -0.22504288 -0.15608531 -0.1890536 0.09558177 -0.10601205 -0.3561348 -0.016809227
0.20928206 0.4477004 -0.31697255 0.33310378 -0.29817182 0.12189164 0.05798665 0.030881856

item_mlp.2.weight f4 [32, 64]
00000000: dac4 84bd 28c4 7ebc 906d 2d3d 006d f33b
00000010: e803 1bbd a40e cbbd acf1 d53e 1622 92be
00000020: 525b eb3d 1fd9 4ebe 1056 8a3c 3be2 a1be
00000030: 19ba 353e 4035 6cbb 9cfb f7bd ef5d cdbc
00000040: bfe9 9cbd eb3b 8fbd 7a4c d53d 3cc9 083e
00000050: 7c8c 093e c625 c2bd 3ecc bc3f a82f 583e
00000060: 7238 023e d749 c6bb 2348 2e3e 47fc 49bd
00000070: f0ea 5ebc 0dd0 5a3c 10d4 b8bc 669f cb3d
00000080: 8c06 80bd aac8 cd3d 5cd5 8f3e 38ba b3bc
00000090: 6dc7 26be b575 cf3d a81a 05be 7b8e 02be
000000a0: d0d5 303d 7333 8b3e 2063 8c3d aea3 d43e
000000b0: d40d 773d 1667 ad3e 6367 6f3e 3c91 d83d
000000c0: 2915 b53d e12d 983c ead0 c13d 0441 f23d
000000d0: 28cb 8abd 0046 ef3d 9489 32be 4a7a 06be
000000e0: 0108 9b3f 8714 d63e 5a6f fc3d 5a85 28bc
000000f0: e0cb 873d 6e37 f63d 95e3 93bd 67ce fabb
00000100: 14ca 0b3c 8da7 143d 70fb 25bd d08d d43c
00000110: eede 803d a6d2 c13d 9a2a 0a3e 3598 b9be
00000120: d99c 76bd afa9 acbe 88c1 c13c af67 a0be
00000130: c58e a93d be51 ac3d 3871 b93d 32d1 d0bd
00000140: e9c7 81be d7ec e23d 4019 01bd bda3 5ebd
00000150: c9ad d33d c4a4 1a3c 3dde 193f 8769 793e
00000160: 28fb 183e 878b dbbd c673 003e 1c27 f2bd
00000170: 1881 f4bc fd25 913c 67f3 66be e225 8e3d
00000180: da3e a5bd 0e9b a6bd 13ea 843e d020 cabd
00000190: e432 4abe 1bf5 45be 4a7e dbbd b458 28be
000001a0: b60b 82bc 7ae3 713e 8771 ddbc befe 603d
000001b0: 6e66 d4bd e617 0b3f 578b 083e 0035 3dbd
000001c0: c304 ac3d 560e c83d 0075 373d 00db e5bc
000001d0: 040a d33d f09c babc 973d a6be 7154 a63d
000001e0: b126 a83e 317e ba3d 606b ec3b 3f3c c1bd
000001f0: 38c2 1b3d 0108 54be 4d14 f9bd 9752 1c3d
00000200: 63f9 263e 3cc5 6e3c 2aa9 c3bd 1023 6d3d
00000210: a65d 8cbd 405a fa3b f79c dbbd b6a7 6b3e
00000220: a899 afbd 3359 8f3e e4bc d83d 6a4c 3a3f
00000230: fa11 0dbe fcde b43d f4d4 e0bd 58f1 c53d
00000240: e230 f83b af3c 263e d0f8 503d 768c 0cbe
00000250: 19d6 8fbe d021 89bd ffc4 80bf 1da0 723d
00000260: 84f0 583c 0230 93bd 177f 32be 5205 4d3d
00000270: a214 a93d ed3f 18bb 02be 823e 92da f03d
00000280: 0678 e13d 3059 a6bc 8e93 8cbd 56a6 c8bd
00000290: 93f6 803e 58c0 adbd c7cf 0eba 6b50 c53e
000002a0: 00d0 32bd 3153 e4be be37 aebc fdba d9be
000002b0: d630 f7bd a90a debe e5c8 babd a81a 443d
000002c0: 2f54 9cbd 4df8 a2bc 4083 a43b 0894 7dbd
000002d0: 1c33 ffbd 48e5 b4bc fd12 b83e f5cd 1c3d
000002e0: 42bc 35bf e81d 7bbe 7eb1 d1bd b207 903d
000002f0: b0df 2cbd 3b20 25be 01f6 39bd 3a32 133e
00000300: ef8e afbd 0805 9a3d 0e83 9fbd 2cab 563d
00000310: a28b a4bd e865 d43d 777b bcbe add9 553d
00000320: 502b 473e c215 463e 8059 acbc ec94 a63e
00000330: ae68 7fbd 4275 ffbd b6a0 bc3d ef03 c23c
00000340: 3415 e8bd a65b 173b 70f4 76bc 0c58 86be
00000350: e825 483e 9bea 1fbf f39c 9abe 9b37 45be
00000360: 0aeb 95be 56f0 e63d 0a4a b43d 2d68 83be
00000370: 789c 433d a4b8 f6bd 68ea be3d ac78 3abd
00000380: 9ef5 d6bd a879 c2bc 24e4 5bbe 6a55 d7bd
00000390: a0e5 193e ff9a 46bd 3f36 28be 1b55 e6bd
000003a0: 956b 74bd 456a 21bf 77dc 00bf 78fd a23b
000003b0: 0c78 973d ba9a f5bd 9929 3dbe c8fd 673d
000003c0: d7fd 9abe 5a66 8f3d b098 e43d 2483 fdbd
000003d0: b00e 4dbc 48ab 8fbd 96e6 a53e ea24 67bd
000003e0: a340 8c3e 03cb e2be 5a7d dc3d 075a 64be
000003f0: 7635 883d ad87 893d 55d5 e2bd 2542 063e
-0.06482859 -0.015549697 0.042340815 0.0074287653 -0.037845522 -0.09914902 0.41785944 -0.2854163
0.11492027 -0.20200013 0.01688674 -0.31617913 0.17746772 -0.0036042482 -0.121085376 -0.025069205
-0.07661771 -0.0699385 0.10414977 0.13358015 0.13432497 -0.09479861 1.474983 0.2111193
0.12716845 -0.006051283 0.17019705 -0.049312856 -0.013605818 0.013355267 -0.022562057 0.09942512
-0.06251249 0.10048039 0.28092468 -0.021939382 -0.16287012 0.10129873 -0.1299845 -0.12749664
0.043172657 0.2718769 0.06854844 0.41531128 0.060315922 0.3386771 0.23379283 0.10574576
0.088419266 0.018576564 0.09463675 0.11828807 -0.0677703 0.11683273 -0.17435294 -0.13132587
1.2111818 0.41812536 0.12325926 -0.0102857 0.06630683 0.12022291 -0.07221142 -0.0076539996
0.008532066 0.0362926 -0.040522993 0.025946528 0.062925205 0.09464006 0.13492814 -0.36248937
-0.060208175 -0.33723208 0.023651853 -0.31329104 0.08279184 0.084140286 0.09054798 -0.10196151
-0.25347832 0.1108033 -0.03151822 -0.05435537 0.10335881 0.009438697 0.60104734 0.24356662
0.14939559 -0.10719972 0.12544164 -0.11823866 -0.029846713 0.01771831 -0.22553788 0.06940819
-0.080686286 -0.08135043 0.25959834 -0.0986954 -0.19745976 -0.19331782 -0.10717447 -0.16440088
-0.015874725 0.23621932 -0.027031673 0.05493044 -0.103710994 0.5433334 0.13334404 -0.046193123
0.08399346 0.09768359 0.044789314 -0.028058529 0.10304645 -0.022779912 -0.32468864 0.08121575
0.3284202 0.091061 0.0072149485 -0.09435319 0.03802702 -0.20706178 -0.12162075 0.0381647
0.16306071 0.0145733915 -0.0955375 0.057894766 -0.068537995 0.007640153 -0.10723298 0.23013195
-0.085742295 0.2799774 0.10582903 0.7277285 -0.13776389 0.088315934 -0.109781176 0.09665173
0.0075741867 0.16234086 0.051018536 -0.13725457 -0.2809303 -0.06695902 -1.0060118 0.059234727
0.013240937 -0.07186891 -0.17431293 0.050053902 0.082558885 -0.0023231462 0.2553559 0.11760439
0.11009221 -0.0203062 -0.06864081 -0.09797351 0.2518812 -0.08483952 -0.00054478314 0.38537917
-0.043655396 -0.4459472 -0.021266814 -0.42525473 -0.120698616 -0.43367508 -0.09120349 0.047876984
-0.07633244 -0.01989379 0.005020529 -0.06190875 -0.1246092 -0.022081986 0.35951987 0.038282353
-0.70990384 -0.24523127 -0.10238932 0.07032718 -0.042205513 -0.16125576 -0.045400623 0.14374629
-0.08572184 0.07520491 -0.077886686 0.052409336 -0.08034445 0.103709996 -0.36812946 0.052209545
0.19450116 0.19344237 -0.02103877 0.32535493 -0.06235569 -0.12473537 0.09210341 0.023683516
-0.11332169 0.0023095398 -0.015072927 -0.2623905 0.1954571 -0.62467355 -0.30197868 -0.19259493
-0.29280883 0.11276309 0.08803184 -0.25665417 0.047756642 -0.12046936 0.09322053 -0.045525238
-0.104960665 -0.02373965 -0.21473747 -0.10514338 0.15029001 -0.04848766 -0.16426943 -0.11246701
-0.05967291 -0.6305278 -0.503364 0.0049740635 0.07395944 -0.119924024 -0.184729 0.05663851
-0.3027179 0.07001944 0.11161935 -0.12378529 -0.012515709 -0.07015091 0.32402486 -0.05643169
0.27393064 -0.4429551 0.107660964 -0.22299968 0.06650822 0.06715331 -0.11075846 0.1311117

item_mlp.2.bias f4 [32]
00000000: fa1a 07be 6bab 70bc f2b7 2b3d 0b9a 7539
00000010: 9305 07be 85ea 093e 016f b43d 8214 0b3e
00000020: 39cc c0bd b8ca 4bbd 41fa 8fbd 4043 a63c
00000030: 2d3d 22be 682d 843c e3fa 3d39 8a70 a5bd
00000040: e1e6 c5bd a726 003d 22d2 943d 370d 113e
00000050: 795f d63d d04a 48bd 039f 123e 32af 043e
00000060: 8a43 443d 514f 15bd dad3 2a3d 525b c53d
00000070: 22eb 33bc 03cc 87bc f477 c6ba 41d0 07bd
-0.13193884 -0.014689307 0.04192347 0.00023422406 -0.1318572 0.13468368 0.08810235 0.13582042
-0.094139524 -0.049753875 -0.07030154 0.02029574 -0.15843649 0.016134933 0.00018117907 -0.08078106
-0.09663177 0.03128686 0.07266642 0.14165197 0.10467429 -0.04889947 0.1431847 0.12957457
0.047915973 -0.036452595 0.041705944 0.096365586 -0.010981353 -0.016576773 -0.001514195 -0.03315759
